<?xml version="1.0"?>
<net name="main_graph" version="11">
	<layers>
		<layer id="0" name="input" type="Parameter" version="opset1">
			<data shape="1,3,416,416" element_type="f32" />
			<output>
				<port id="0" precision="FP32" names="input">
					<dim>1</dim>
					<dim>3</dim>
					<dim>416</dim>
					<dim>416</dim>
				</port>
			</output>
		</layer>
		<layer id="1" name="onnx::Conv_755_compressed" type="Const" version="opset1">
			<data element_type="f16" shape="32, 3, 3, 3" offset="0" size="1728" />
			<output>
				<port id="0" precision="FP16">
					<dim>32</dim>
					<dim>3</dim>
					<dim>3</dim>
					<dim>3</dim>
				</port>
			</output>
		</layer>
		<layer id="2" name="onnx::Conv_755" type="Convert" version="opset1">
			<data destination_type="f32" />
			<rt_info>
				<attribute name="decompression" version="0" />
			</rt_info>
			<input>
				<port id="0" precision="FP16">
					<dim>32</dim>
					<dim>3</dim>
					<dim>3</dim>
					<dim>3</dim>
				</port>
			</input>
			<output>
				<port id="1" precision="FP32" names="onnx::Conv_755">
					<dim>32</dim>
					<dim>3</dim>
					<dim>3</dim>
					<dim>3</dim>
				</port>
			</output>
		</layer>
		<layer id="3" name="/models.0/conv1/Conv/WithoutBiases" type="Convolution" version="opset1">
			<data strides="2, 2" dilations="1, 1" pads_begin="1, 1" pads_end="1, 1" auto_pad="explicit" />
			<input>
				<port id="0" precision="FP32">
					<dim>1</dim>
					<dim>3</dim>
					<dim>416</dim>
					<dim>416</dim>
				</port>
				<port id="1" precision="FP32">
					<dim>32</dim>
					<dim>3</dim>
					<dim>3</dim>
					<dim>3</dim>
				</port>
			</input>
			<output>
				<port id="2" precision="FP32">
					<dim>1</dim>
					<dim>32</dim>
					<dim>208</dim>
					<dim>208</dim>
				</port>
			</output>
		</layer>
		<layer id="4" name="Reshape_55_compressed" type="Const" version="opset1">
			<data element_type="f16" shape="1, 32, 1, 1" offset="1728" size="64" />
			<output>
				<port id="0" precision="FP16">
					<dim>1</dim>
					<dim>32</dim>
					<dim>1</dim>
					<dim>1</dim>
				</port>
			</output>
		</layer>
		<layer id="5" name="Reshape_55" type="Convert" version="opset1">
			<data destination_type="f32" />
			<rt_info>
				<attribute name="decompression" version="0" />
			</rt_info>
			<input>
				<port id="0" precision="FP16">
					<dim>1</dim>
					<dim>32</dim>
					<dim>1</dim>
					<dim>1</dim>
				</port>
			</input>
			<output>
				<port id="1" precision="FP32">
					<dim>1</dim>
					<dim>32</dim>
					<dim>1</dim>
					<dim>1</dim>
				</port>
			</output>
		</layer>
		<layer id="6" name="/models.0/conv1/Conv" type="Add" version="opset1">
			<data auto_broadcast="numpy" />
			<input>
				<port id="0" precision="FP32">
					<dim>1</dim>
					<dim>32</dim>
					<dim>208</dim>
					<dim>208</dim>
				</port>
				<port id="1" precision="FP32">
					<dim>1</dim>
					<dim>32</dim>
					<dim>1</dim>
					<dim>1</dim>
				</port>
			</input>
			<output>
				<port id="2" precision="FP32" names="/models.0/conv1/Conv_output_0">
					<dim>1</dim>
					<dim>32</dim>
					<dim>208</dim>
					<dim>208</dim>
				</port>
			</output>
		</layer>
		<layer id="7" name="Constant_57_compressed" type="Const" version="opset1">
			<data element_type="f16" shape="1" offset="1792" size="2" />
			<output>
				<port id="0" precision="FP16">
					<dim>1</dim>
				</port>
			</output>
		</layer>
		<layer id="8" name="Constant_57" type="Convert" version="opset1">
			<data destination_type="f32" />
			<rt_info>
				<attribute name="decompression" version="0" />
			</rt_info>
			<input>
				<port id="0" precision="FP16">
					<dim>1</dim>
				</port>
			</input>
			<output>
				<port id="1" precision="FP32">
					<dim>1</dim>
				</port>
			</output>
		</layer>
		<layer id="9" name="/models.0/leaky1/LeakyRelu" type="PReLU" version="opset1">
			<input>
				<port id="0" precision="FP32">
					<dim>1</dim>
					<dim>32</dim>
					<dim>208</dim>
					<dim>208</dim>
				</port>
				<port id="1" precision="FP32">
					<dim>1</dim>
				</port>
			</input>
			<output>
				<port id="2" precision="FP32" names="/models.0/leaky1/LeakyRelu_output_0">
					<dim>1</dim>
					<dim>32</dim>
					<dim>208</dim>
					<dim>208</dim>
				</port>
			</output>
		</layer>
		<layer id="10" name="onnx::Conv_758_compressed" type="Const" version="opset1">
			<data element_type="f16" shape="64, 32, 3, 3" offset="1794" size="36864" />
			<output>
				<port id="0" precision="FP16">
					<dim>64</dim>
					<dim>32</dim>
					<dim>3</dim>
					<dim>3</dim>
				</port>
			</output>
		</layer>
		<layer id="11" name="onnx::Conv_758" type="Convert" version="opset1">
			<data destination_type="f32" />
			<rt_info>
				<attribute name="decompression" version="0" />
			</rt_info>
			<input>
				<port id="0" precision="FP16">
					<dim>64</dim>
					<dim>32</dim>
					<dim>3</dim>
					<dim>3</dim>
				</port>
			</input>
			<output>
				<port id="1" precision="FP32" names="onnx::Conv_758">
					<dim>64</dim>
					<dim>32</dim>
					<dim>3</dim>
					<dim>3</dim>
				</port>
			</output>
		</layer>
		<layer id="12" name="/models.1/conv2/Conv/WithoutBiases" type="Convolution" version="opset1">
			<data strides="2, 2" dilations="1, 1" pads_begin="1, 1" pads_end="1, 1" auto_pad="explicit" />
			<input>
				<port id="0" precision="FP32">
					<dim>1</dim>
					<dim>32</dim>
					<dim>208</dim>
					<dim>208</dim>
				</port>
				<port id="1" precision="FP32">
					<dim>64</dim>
					<dim>32</dim>
					<dim>3</dim>
					<dim>3</dim>
				</port>
			</input>
			<output>
				<port id="2" precision="FP32">
					<dim>1</dim>
					<dim>64</dim>
					<dim>104</dim>
					<dim>104</dim>
				</port>
			</output>
		</layer>
		<layer id="13" name="Reshape_70_compressed" type="Const" version="opset1">
			<data element_type="f16" shape="1, 64, 1, 1" offset="38658" size="128" />
			<output>
				<port id="0" precision="FP16">
					<dim>1</dim>
					<dim>64</dim>
					<dim>1</dim>
					<dim>1</dim>
				</port>
			</output>
		</layer>
		<layer id="14" name="Reshape_70" type="Convert" version="opset1">
			<data destination_type="f32" />
			<rt_info>
				<attribute name="decompression" version="0" />
			</rt_info>
			<input>
				<port id="0" precision="FP16">
					<dim>1</dim>
					<dim>64</dim>
					<dim>1</dim>
					<dim>1</dim>
				</port>
			</input>
			<output>
				<port id="1" precision="FP32">
					<dim>1</dim>
					<dim>64</dim>
					<dim>1</dim>
					<dim>1</dim>
				</port>
			</output>
		</layer>
		<layer id="15" name="/models.1/conv2/Conv" type="Add" version="opset1">
			<data auto_broadcast="numpy" />
			<input>
				<port id="0" precision="FP32">
					<dim>1</dim>
					<dim>64</dim>
					<dim>104</dim>
					<dim>104</dim>
				</port>
				<port id="1" precision="FP32">
					<dim>1</dim>
					<dim>64</dim>
					<dim>1</dim>
					<dim>1</dim>
				</port>
			</input>
			<output>
				<port id="2" precision="FP32" names="/models.1/conv2/Conv_output_0">
					<dim>1</dim>
					<dim>64</dim>
					<dim>104</dim>
					<dim>104</dim>
				</port>
			</output>
		</layer>
		<layer id="16" name="Constant_72_compressed" type="Const" version="opset1">
			<data element_type="f16" shape="1" offset="1792" size="2" />
			<output>
				<port id="0" precision="FP16">
					<dim>1</dim>
				</port>
			</output>
		</layer>
		<layer id="17" name="Constant_72" type="Convert" version="opset1">
			<data destination_type="f32" />
			<rt_info>
				<attribute name="decompression" version="0" />
			</rt_info>
			<input>
				<port id="0" precision="FP16">
					<dim>1</dim>
				</port>
			</input>
			<output>
				<port id="1" precision="FP32">
					<dim>1</dim>
				</port>
			</output>
		</layer>
		<layer id="18" name="/models.1/leaky2/LeakyRelu" type="PReLU" version="opset1">
			<input>
				<port id="0" precision="FP32">
					<dim>1</dim>
					<dim>64</dim>
					<dim>104</dim>
					<dim>104</dim>
				</port>
				<port id="1" precision="FP32">
					<dim>1</dim>
				</port>
			</input>
			<output>
				<port id="2" precision="FP32" names="/models.1/leaky2/LeakyRelu_output_0">
					<dim>1</dim>
					<dim>64</dim>
					<dim>104</dim>
					<dim>104</dim>
				</port>
			</output>
		</layer>
		<layer id="19" name="onnx::Conv_761_compressed" type="Const" version="opset1">
			<data element_type="f16" shape="64, 64, 3, 3" offset="38786" size="73728" />
			<output>
				<port id="0" precision="FP16">
					<dim>64</dim>
					<dim>64</dim>
					<dim>3</dim>
					<dim>3</dim>
				</port>
			</output>
		</layer>
		<layer id="20" name="onnx::Conv_761" type="Convert" version="opset1">
			<data destination_type="f32" />
			<rt_info>
				<attribute name="decompression" version="0" />
			</rt_info>
			<input>
				<port id="0" precision="FP16">
					<dim>64</dim>
					<dim>64</dim>
					<dim>3</dim>
					<dim>3</dim>
				</port>
			</input>
			<output>
				<port id="1" precision="FP32" names="onnx::Conv_761">
					<dim>64</dim>
					<dim>64</dim>
					<dim>3</dim>
					<dim>3</dim>
				</port>
			</output>
		</layer>
		<layer id="21" name="/models.2/conv3/Conv/WithoutBiases" type="Convolution" version="opset1">
			<data strides="1, 1" dilations="1, 1" pads_begin="1, 1" pads_end="1, 1" auto_pad="explicit" />
			<input>
				<port id="0" precision="FP32">
					<dim>1</dim>
					<dim>64</dim>
					<dim>104</dim>
					<dim>104</dim>
				</port>
				<port id="1" precision="FP32">
					<dim>64</dim>
					<dim>64</dim>
					<dim>3</dim>
					<dim>3</dim>
				</port>
			</input>
			<output>
				<port id="2" precision="FP32">
					<dim>1</dim>
					<dim>64</dim>
					<dim>104</dim>
					<dim>104</dim>
				</port>
			</output>
		</layer>
		<layer id="22" name="Reshape_85_compressed" type="Const" version="opset1">
			<data element_type="f16" shape="1, 64, 1, 1" offset="112514" size="128" />
			<output>
				<port id="0" precision="FP16">
					<dim>1</dim>
					<dim>64</dim>
					<dim>1</dim>
					<dim>1</dim>
				</port>
			</output>
		</layer>
		<layer id="23" name="Reshape_85" type="Convert" version="opset1">
			<data destination_type="f32" />
			<rt_info>
				<attribute name="decompression" version="0" />
			</rt_info>
			<input>
				<port id="0" precision="FP16">
					<dim>1</dim>
					<dim>64</dim>
					<dim>1</dim>
					<dim>1</dim>
				</port>
			</input>
			<output>
				<port id="1" precision="FP32">
					<dim>1</dim>
					<dim>64</dim>
					<dim>1</dim>
					<dim>1</dim>
				</port>
			</output>
		</layer>
		<layer id="24" name="/models.2/conv3/Conv" type="Add" version="opset1">
			<data auto_broadcast="numpy" />
			<input>
				<port id="0" precision="FP32">
					<dim>1</dim>
					<dim>64</dim>
					<dim>104</dim>
					<dim>104</dim>
				</port>
				<port id="1" precision="FP32">
					<dim>1</dim>
					<dim>64</dim>
					<dim>1</dim>
					<dim>1</dim>
				</port>
			</input>
			<output>
				<port id="2" precision="FP32" names="/models.2/conv3/Conv_output_0">
					<dim>1</dim>
					<dim>64</dim>
					<dim>104</dim>
					<dim>104</dim>
				</port>
			</output>
		</layer>
		<layer id="25" name="Constant_87_compressed" type="Const" version="opset1">
			<data element_type="f16" shape="1" offset="1792" size="2" />
			<output>
				<port id="0" precision="FP16">
					<dim>1</dim>
				</port>
			</output>
		</layer>
		<layer id="26" name="Constant_87" type="Convert" version="opset1">
			<data destination_type="f32" />
			<rt_info>
				<attribute name="decompression" version="0" />
			</rt_info>
			<input>
				<port id="0" precision="FP16">
					<dim>1</dim>
				</port>
			</input>
			<output>
				<port id="1" precision="FP32">
					<dim>1</dim>
				</port>
			</output>
		</layer>
		<layer id="27" name="/models.2/leaky3/LeakyRelu" type="PReLU" version="opset1">
			<input>
				<port id="0" precision="FP32">
					<dim>1</dim>
					<dim>64</dim>
					<dim>104</dim>
					<dim>104</dim>
				</port>
				<port id="1" precision="FP32">
					<dim>1</dim>
				</port>
			</input>
			<output>
				<port id="2" precision="FP32" names="/models.2/leaky3/LeakyRelu_output_0">
					<dim>1</dim>
					<dim>64</dim>
					<dim>104</dim>
					<dim>104</dim>
				</port>
			</output>
		</layer>
		<layer id="28" name="/Constant_1" type="Const" version="opset1">
			<data element_type="i64" shape="1" offset="112642" size="8" />
			<output>
				<port id="0" precision="I64" names="/Constant_1_output_0">
					<dim>1</dim>
				</port>
			</output>
		</layer>
		<layer id="29" name="/Constant_2" type="Const" version="opset1">
			<data element_type="i64" shape="1" offset="112650" size="8" />
			<output>
				<port id="0" precision="I64" names="/Constant_2_output_0">
					<dim>1</dim>
				</port>
			</output>
		</layer>
		<layer id="30" name="/Constant_3" type="Const" version="opset1">
			<data element_type="i64" shape="1" offset="112658" size="8" />
			<output>
				<port id="0" precision="I64" names="/Constant_3_output_0">
					<dim>1</dim>
				</port>
			</output>
		</layer>
		<layer id="31" name="/Constant" type="Const" version="opset1">
			<data element_type="i64" shape="1" offset="112658" size="8" />
			<output>
				<port id="0" precision="I64" names="/Constant_output_0">
					<dim>1</dim>
				</port>
			</output>
		</layer>
		<layer id="32" name="/Slice" type="Slice" version="opset8">
			<input>
				<port id="0" precision="FP32">
					<dim>1</dim>
					<dim>64</dim>
					<dim>104</dim>
					<dim>104</dim>
				</port>
				<port id="1" precision="I64">
					<dim>1</dim>
				</port>
				<port id="2" precision="I64">
					<dim>1</dim>
				</port>
				<port id="3" precision="I64">
					<dim>1</dim>
				</port>
				<port id="4" precision="I64">
					<dim>1</dim>
				</port>
			</input>
			<output>
				<port id="5" precision="FP32" names="/Slice_output_0">
					<dim>1</dim>
					<dim>32</dim>
					<dim>104</dim>
					<dim>104</dim>
				</port>
			</output>
		</layer>
		<layer id="33" name="onnx::Conv_764_compressed" type="Const" version="opset1">
			<data element_type="f16" shape="32, 32, 3, 3" offset="112666" size="18432" />
			<output>
				<port id="0" precision="FP16">
					<dim>32</dim>
					<dim>32</dim>
					<dim>3</dim>
					<dim>3</dim>
				</port>
			</output>
		</layer>
		<layer id="34" name="onnx::Conv_764" type="Convert" version="opset1">
			<data destination_type="f32" />
			<rt_info>
				<attribute name="decompression" version="0" />
			</rt_info>
			<input>
				<port id="0" precision="FP16">
					<dim>32</dim>
					<dim>32</dim>
					<dim>3</dim>
					<dim>3</dim>
				</port>
			</input>
			<output>
				<port id="1" precision="FP32" names="onnx::Conv_764">
					<dim>32</dim>
					<dim>32</dim>
					<dim>3</dim>
					<dim>3</dim>
				</port>
			</output>
		</layer>
		<layer id="35" name="/models.4/conv4/Conv/WithoutBiases" type="Convolution" version="opset1">
			<data strides="1, 1" dilations="1, 1" pads_begin="1, 1" pads_end="1, 1" auto_pad="explicit" />
			<input>
				<port id="0" precision="FP32">
					<dim>1</dim>
					<dim>32</dim>
					<dim>104</dim>
					<dim>104</dim>
				</port>
				<port id="1" precision="FP32">
					<dim>32</dim>
					<dim>32</dim>
					<dim>3</dim>
					<dim>3</dim>
				</port>
			</input>
			<output>
				<port id="2" precision="FP32">
					<dim>1</dim>
					<dim>32</dim>
					<dim>104</dim>
					<dim>104</dim>
				</port>
			</output>
		</layer>
		<layer id="36" name="Reshape_105_compressed" type="Const" version="opset1">
			<data element_type="f16" shape="1, 32, 1, 1" offset="131098" size="64" />
			<output>
				<port id="0" precision="FP16">
					<dim>1</dim>
					<dim>32</dim>
					<dim>1</dim>
					<dim>1</dim>
				</port>
			</output>
		</layer>
		<layer id="37" name="Reshape_105" type="Convert" version="opset1">
			<data destination_type="f32" />
			<rt_info>
				<attribute name="decompression" version="0" />
			</rt_info>
			<input>
				<port id="0" precision="FP16">
					<dim>1</dim>
					<dim>32</dim>
					<dim>1</dim>
					<dim>1</dim>
				</port>
			</input>
			<output>
				<port id="1" precision="FP32">
					<dim>1</dim>
					<dim>32</dim>
					<dim>1</dim>
					<dim>1</dim>
				</port>
			</output>
		</layer>
		<layer id="38" name="/models.4/conv4/Conv" type="Add" version="opset1">
			<data auto_broadcast="numpy" />
			<input>
				<port id="0" precision="FP32">
					<dim>1</dim>
					<dim>32</dim>
					<dim>104</dim>
					<dim>104</dim>
				</port>
				<port id="1" precision="FP32">
					<dim>1</dim>
					<dim>32</dim>
					<dim>1</dim>
					<dim>1</dim>
				</port>
			</input>
			<output>
				<port id="2" precision="FP32" names="/models.4/conv4/Conv_output_0">
					<dim>1</dim>
					<dim>32</dim>
					<dim>104</dim>
					<dim>104</dim>
				</port>
			</output>
		</layer>
		<layer id="39" name="Constant_107_compressed" type="Const" version="opset1">
			<data element_type="f16" shape="1" offset="1792" size="2" />
			<output>
				<port id="0" precision="FP16">
					<dim>1</dim>
				</port>
			</output>
		</layer>
		<layer id="40" name="Constant_107" type="Convert" version="opset1">
			<data destination_type="f32" />
			<rt_info>
				<attribute name="decompression" version="0" />
			</rt_info>
			<input>
				<port id="0" precision="FP16">
					<dim>1</dim>
				</port>
			</input>
			<output>
				<port id="1" precision="FP32">
					<dim>1</dim>
				</port>
			</output>
		</layer>
		<layer id="41" name="/models.4/leaky4/LeakyRelu" type="PReLU" version="opset1">
			<input>
				<port id="0" precision="FP32">
					<dim>1</dim>
					<dim>32</dim>
					<dim>104</dim>
					<dim>104</dim>
				</port>
				<port id="1" precision="FP32">
					<dim>1</dim>
				</port>
			</input>
			<output>
				<port id="2" precision="FP32" names="/models.4/leaky4/LeakyRelu_output_0">
					<dim>1</dim>
					<dim>32</dim>
					<dim>104</dim>
					<dim>104</dim>
				</port>
			</output>
		</layer>
		<layer id="42" name="onnx::Conv_767_compressed" type="Const" version="opset1">
			<data element_type="f16" shape="32, 32, 3, 3" offset="131162" size="18432" />
			<output>
				<port id="0" precision="FP16">
					<dim>32</dim>
					<dim>32</dim>
					<dim>3</dim>
					<dim>3</dim>
				</port>
			</output>
		</layer>
		<layer id="43" name="onnx::Conv_767" type="Convert" version="opset1">
			<data destination_type="f32" />
			<rt_info>
				<attribute name="decompression" version="0" />
			</rt_info>
			<input>
				<port id="0" precision="FP16">
					<dim>32</dim>
					<dim>32</dim>
					<dim>3</dim>
					<dim>3</dim>
				</port>
			</input>
			<output>
				<port id="1" precision="FP32" names="onnx::Conv_767">
					<dim>32</dim>
					<dim>32</dim>
					<dim>3</dim>
					<dim>3</dim>
				</port>
			</output>
		</layer>
		<layer id="44" name="/models.5/conv5/Conv/WithoutBiases" type="Convolution" version="opset1">
			<data strides="1, 1" dilations="1, 1" pads_begin="1, 1" pads_end="1, 1" auto_pad="explicit" />
			<input>
				<port id="0" precision="FP32">
					<dim>1</dim>
					<dim>32</dim>
					<dim>104</dim>
					<dim>104</dim>
				</port>
				<port id="1" precision="FP32">
					<dim>32</dim>
					<dim>32</dim>
					<dim>3</dim>
					<dim>3</dim>
				</port>
			</input>
			<output>
				<port id="2" precision="FP32">
					<dim>1</dim>
					<dim>32</dim>
					<dim>104</dim>
					<dim>104</dim>
				</port>
			</output>
		</layer>
		<layer id="45" name="Reshape_120_compressed" type="Const" version="opset1">
			<data element_type="f16" shape="1, 32, 1, 1" offset="149594" size="64" />
			<output>
				<port id="0" precision="FP16">
					<dim>1</dim>
					<dim>32</dim>
					<dim>1</dim>
					<dim>1</dim>
				</port>
			</output>
		</layer>
		<layer id="46" name="Reshape_120" type="Convert" version="opset1">
			<data destination_type="f32" />
			<rt_info>
				<attribute name="decompression" version="0" />
			</rt_info>
			<input>
				<port id="0" precision="FP16">
					<dim>1</dim>
					<dim>32</dim>
					<dim>1</dim>
					<dim>1</dim>
				</port>
			</input>
			<output>
				<port id="1" precision="FP32">
					<dim>1</dim>
					<dim>32</dim>
					<dim>1</dim>
					<dim>1</dim>
				</port>
			</output>
		</layer>
		<layer id="47" name="/models.5/conv5/Conv" type="Add" version="opset1">
			<data auto_broadcast="numpy" />
			<input>
				<port id="0" precision="FP32">
					<dim>1</dim>
					<dim>32</dim>
					<dim>104</dim>
					<dim>104</dim>
				</port>
				<port id="1" precision="FP32">
					<dim>1</dim>
					<dim>32</dim>
					<dim>1</dim>
					<dim>1</dim>
				</port>
			</input>
			<output>
				<port id="2" precision="FP32" names="/models.5/conv5/Conv_output_0">
					<dim>1</dim>
					<dim>32</dim>
					<dim>104</dim>
					<dim>104</dim>
				</port>
			</output>
		</layer>
		<layer id="48" name="Constant_122_compressed" type="Const" version="opset1">
			<data element_type="f16" shape="1" offset="1792" size="2" />
			<output>
				<port id="0" precision="FP16">
					<dim>1</dim>
				</port>
			</output>
		</layer>
		<layer id="49" name="Constant_122" type="Convert" version="opset1">
			<data destination_type="f32" />
			<rt_info>
				<attribute name="decompression" version="0" />
			</rt_info>
			<input>
				<port id="0" precision="FP16">
					<dim>1</dim>
				</port>
			</input>
			<output>
				<port id="1" precision="FP32">
					<dim>1</dim>
				</port>
			</output>
		</layer>
		<layer id="50" name="/models.5/leaky5/LeakyRelu" type="PReLU" version="opset1">
			<input>
				<port id="0" precision="FP32">
					<dim>1</dim>
					<dim>32</dim>
					<dim>104</dim>
					<dim>104</dim>
				</port>
				<port id="1" precision="FP32">
					<dim>1</dim>
				</port>
			</input>
			<output>
				<port id="2" precision="FP32" names="/models.5/leaky5/LeakyRelu_output_0">
					<dim>1</dim>
					<dim>32</dim>
					<dim>104</dim>
					<dim>104</dim>
				</port>
			</output>
		</layer>
		<layer id="51" name="/Concat" type="Concat" version="opset1">
			<data axis="1" />
			<input>
				<port id="0" precision="FP32">
					<dim>1</dim>
					<dim>32</dim>
					<dim>104</dim>
					<dim>104</dim>
				</port>
				<port id="1" precision="FP32">
					<dim>1</dim>
					<dim>32</dim>
					<dim>104</dim>
					<dim>104</dim>
				</port>
			</input>
			<output>
				<port id="2" precision="FP32" names="/Concat_output_0">
					<dim>1</dim>
					<dim>64</dim>
					<dim>104</dim>
					<dim>104</dim>
				</port>
			</output>
		</layer>
		<layer id="52" name="onnx::Conv_770_compressed" type="Const" version="opset1">
			<data element_type="f16" shape="64, 64, 1, 1" offset="149658" size="8192" />
			<output>
				<port id="0" precision="FP16">
					<dim>64</dim>
					<dim>64</dim>
					<dim>1</dim>
					<dim>1</dim>
				</port>
			</output>
		</layer>
		<layer id="53" name="onnx::Conv_770" type="Convert" version="opset1">
			<data destination_type="f32" />
			<rt_info>
				<attribute name="decompression" version="0" />
			</rt_info>
			<input>
				<port id="0" precision="FP16">
					<dim>64</dim>
					<dim>64</dim>
					<dim>1</dim>
					<dim>1</dim>
				</port>
			</input>
			<output>
				<port id="1" precision="FP32" names="onnx::Conv_770">
					<dim>64</dim>
					<dim>64</dim>
					<dim>1</dim>
					<dim>1</dim>
				</port>
			</output>
		</layer>
		<layer id="54" name="/models.7/conv6/Conv/WithoutBiases" type="Convolution" version="opset1">
			<data strides="1, 1" dilations="1, 1" pads_begin="0, 0" pads_end="0, 0" auto_pad="explicit" />
			<input>
				<port id="0" precision="FP32">
					<dim>1</dim>
					<dim>64</dim>
					<dim>104</dim>
					<dim>104</dim>
				</port>
				<port id="1" precision="FP32">
					<dim>64</dim>
					<dim>64</dim>
					<dim>1</dim>
					<dim>1</dim>
				</port>
			</input>
			<output>
				<port id="2" precision="FP32">
					<dim>1</dim>
					<dim>64</dim>
					<dim>104</dim>
					<dim>104</dim>
				</port>
			</output>
		</layer>
		<layer id="55" name="Reshape_136_compressed" type="Const" version="opset1">
			<data element_type="f16" shape="1, 64, 1, 1" offset="157850" size="128" />
			<output>
				<port id="0" precision="FP16">
					<dim>1</dim>
					<dim>64</dim>
					<dim>1</dim>
					<dim>1</dim>
				</port>
			</output>
		</layer>
		<layer id="56" name="Reshape_136" type="Convert" version="opset1">
			<data destination_type="f32" />
			<rt_info>
				<attribute name="decompression" version="0" />
			</rt_info>
			<input>
				<port id="0" precision="FP16">
					<dim>1</dim>
					<dim>64</dim>
					<dim>1</dim>
					<dim>1</dim>
				</port>
			</input>
			<output>
				<port id="1" precision="FP32">
					<dim>1</dim>
					<dim>64</dim>
					<dim>1</dim>
					<dim>1</dim>
				</port>
			</output>
		</layer>
		<layer id="57" name="/models.7/conv6/Conv" type="Add" version="opset1">
			<data auto_broadcast="numpy" />
			<input>
				<port id="0" precision="FP32">
					<dim>1</dim>
					<dim>64</dim>
					<dim>104</dim>
					<dim>104</dim>
				</port>
				<port id="1" precision="FP32">
					<dim>1</dim>
					<dim>64</dim>
					<dim>1</dim>
					<dim>1</dim>
				</port>
			</input>
			<output>
				<port id="2" precision="FP32" names="/models.7/conv6/Conv_output_0">
					<dim>1</dim>
					<dim>64</dim>
					<dim>104</dim>
					<dim>104</dim>
				</port>
			</output>
		</layer>
		<layer id="58" name="Constant_138_compressed" type="Const" version="opset1">
			<data element_type="f16" shape="1" offset="1792" size="2" />
			<output>
				<port id="0" precision="FP16">
					<dim>1</dim>
				</port>
			</output>
		</layer>
		<layer id="59" name="Constant_138" type="Convert" version="opset1">
			<data destination_type="f32" />
			<rt_info>
				<attribute name="decompression" version="0" />
			</rt_info>
			<input>
				<port id="0" precision="FP16">
					<dim>1</dim>
				</port>
			</input>
			<output>
				<port id="1" precision="FP32">
					<dim>1</dim>
				</port>
			</output>
		</layer>
		<layer id="60" name="/models.7/leaky6/LeakyRelu" type="PReLU" version="opset1">
			<input>
				<port id="0" precision="FP32">
					<dim>1</dim>
					<dim>64</dim>
					<dim>104</dim>
					<dim>104</dim>
				</port>
				<port id="1" precision="FP32">
					<dim>1</dim>
				</port>
			</input>
			<output>
				<port id="2" precision="FP32" names="/models.7/leaky6/LeakyRelu_output_0">
					<dim>1</dim>
					<dim>64</dim>
					<dim>104</dim>
					<dim>104</dim>
				</port>
			</output>
		</layer>
		<layer id="61" name="/Concat_1" type="Concat" version="opset1">
			<data axis="1" />
			<input>
				<port id="0" precision="FP32">
					<dim>1</dim>
					<dim>64</dim>
					<dim>104</dim>
					<dim>104</dim>
				</port>
				<port id="1" precision="FP32">
					<dim>1</dim>
					<dim>64</dim>
					<dim>104</dim>
					<dim>104</dim>
				</port>
			</input>
			<output>
				<port id="2" precision="FP32" names="/Concat_1_output_0">
					<dim>1</dim>
					<dim>128</dim>
					<dim>104</dim>
					<dim>104</dim>
				</port>
			</output>
		</layer>
		<layer id="62" name="/models.9/MaxPool" type="MaxPool" version="opset8">
			<data strides="2, 2" dilations="1, 1" pads_begin="0, 0" pads_end="0, 0" kernel="2, 2" rounding_type="floor" auto_pad="explicit" index_element_type="i64" axis="0" />
			<input>
				<port id="0" precision="FP32">
					<dim>1</dim>
					<dim>128</dim>
					<dim>104</dim>
					<dim>104</dim>
				</port>
			</input>
			<output>
				<port id="1" precision="FP32" names="/models.9/MaxPool_output_0">
					<dim>1</dim>
					<dim>128</dim>
					<dim>52</dim>
					<dim>52</dim>
				</port>
				<port id="2" precision="I64">
					<dim>1</dim>
					<dim>128</dim>
					<dim>52</dim>
					<dim>52</dim>
				</port>
			</output>
		</layer>
		<layer id="63" name="onnx::Conv_773_compressed" type="Const" version="opset1">
			<data element_type="f16" shape="128, 128, 3, 3" offset="157978" size="294912" />
			<output>
				<port id="0" precision="FP16">
					<dim>128</dim>
					<dim>128</dim>
					<dim>3</dim>
					<dim>3</dim>
				</port>
			</output>
		</layer>
		<layer id="64" name="onnx::Conv_773" type="Convert" version="opset1">
			<data destination_type="f32" />
			<rt_info>
				<attribute name="decompression" version="0" />
			</rt_info>
			<input>
				<port id="0" precision="FP16">
					<dim>128</dim>
					<dim>128</dim>
					<dim>3</dim>
					<dim>3</dim>
				</port>
			</input>
			<output>
				<port id="1" precision="FP32" names="onnx::Conv_773">
					<dim>128</dim>
					<dim>128</dim>
					<dim>3</dim>
					<dim>3</dim>
				</port>
			</output>
		</layer>
		<layer id="65" name="/models.10/conv7/Conv/WithoutBiases" type="Convolution" version="opset1">
			<data strides="1, 1" dilations="1, 1" pads_begin="1, 1" pads_end="1, 1" auto_pad="explicit" />
			<input>
				<port id="0" precision="FP32">
					<dim>1</dim>
					<dim>128</dim>
					<dim>52</dim>
					<dim>52</dim>
				</port>
				<port id="1" precision="FP32">
					<dim>128</dim>
					<dim>128</dim>
					<dim>3</dim>
					<dim>3</dim>
				</port>
			</input>
			<output>
				<port id="2" precision="FP32">
					<dim>1</dim>
					<dim>128</dim>
					<dim>52</dim>
					<dim>52</dim>
				</port>
			</output>
		</layer>
		<layer id="66" name="Reshape_153_compressed" type="Const" version="opset1">
			<data element_type="f16" shape="1, 128, 1, 1" offset="452890" size="256" />
			<output>
				<port id="0" precision="FP16">
					<dim>1</dim>
					<dim>128</dim>
					<dim>1</dim>
					<dim>1</dim>
				</port>
			</output>
		</layer>
		<layer id="67" name="Reshape_153" type="Convert" version="opset1">
			<data destination_type="f32" />
			<rt_info>
				<attribute name="decompression" version="0" />
			</rt_info>
			<input>
				<port id="0" precision="FP16">
					<dim>1</dim>
					<dim>128</dim>
					<dim>1</dim>
					<dim>1</dim>
				</port>
			</input>
			<output>
				<port id="1" precision="FP32">
					<dim>1</dim>
					<dim>128</dim>
					<dim>1</dim>
					<dim>1</dim>
				</port>
			</output>
		</layer>
		<layer id="68" name="/models.10/conv7/Conv" type="Add" version="opset1">
			<data auto_broadcast="numpy" />
			<input>
				<port id="0" precision="FP32">
					<dim>1</dim>
					<dim>128</dim>
					<dim>52</dim>
					<dim>52</dim>
				</port>
				<port id="1" precision="FP32">
					<dim>1</dim>
					<dim>128</dim>
					<dim>1</dim>
					<dim>1</dim>
				</port>
			</input>
			<output>
				<port id="2" precision="FP32" names="/models.10/conv7/Conv_output_0">
					<dim>1</dim>
					<dim>128</dim>
					<dim>52</dim>
					<dim>52</dim>
				</port>
			</output>
		</layer>
		<layer id="69" name="Constant_155_compressed" type="Const" version="opset1">
			<data element_type="f16" shape="1" offset="1792" size="2" />
			<output>
				<port id="0" precision="FP16">
					<dim>1</dim>
				</port>
			</output>
		</layer>
		<layer id="70" name="Constant_155" type="Convert" version="opset1">
			<data destination_type="f32" />
			<rt_info>
				<attribute name="decompression" version="0" />
			</rt_info>
			<input>
				<port id="0" precision="FP16">
					<dim>1</dim>
				</port>
			</input>
			<output>
				<port id="1" precision="FP32">
					<dim>1</dim>
				</port>
			</output>
		</layer>
		<layer id="71" name="/models.10/leaky7/LeakyRelu" type="PReLU" version="opset1">
			<input>
				<port id="0" precision="FP32">
					<dim>1</dim>
					<dim>128</dim>
					<dim>52</dim>
					<dim>52</dim>
				</port>
				<port id="1" precision="FP32">
					<dim>1</dim>
				</port>
			</input>
			<output>
				<port id="2" precision="FP32" names="/models.10/leaky7/LeakyRelu_output_0">
					<dim>1</dim>
					<dim>128</dim>
					<dim>52</dim>
					<dim>52</dim>
				</port>
			</output>
		</layer>
		<layer id="72" name="/Constant_5" type="Const" version="opset1">
			<data element_type="i64" shape="1" offset="112650" size="8" />
			<output>
				<port id="0" precision="I64" names="/Constant_5_output_0">
					<dim>1</dim>
				</port>
			</output>
		</layer>
		<layer id="73" name="/Constant_6" type="Const" version="opset1">
			<data element_type="i64" shape="1" offset="453146" size="8" />
			<output>
				<port id="0" precision="I64" names="/Constant_6_output_0">
					<dim>1</dim>
				</port>
			</output>
		</layer>
		<layer id="74" name="/Constant_7" type="Const" version="opset1">
			<data element_type="i64" shape="1" offset="112658" size="8" />
			<output>
				<port id="0" precision="I64" names="/Constant_7_output_0">
					<dim>1</dim>
				</port>
			</output>
		</layer>
		<layer id="75" name="/Constant_4" type="Const" version="opset1">
			<data element_type="i64" shape="1" offset="112658" size="8" />
			<output>
				<port id="0" precision="I64" names="/Constant_4_output_0">
					<dim>1</dim>
				</port>
			</output>
		</layer>
		<layer id="76" name="/Slice_1" type="Slice" version="opset8">
			<input>
				<port id="0" precision="FP32">
					<dim>1</dim>
					<dim>128</dim>
					<dim>52</dim>
					<dim>52</dim>
				</port>
				<port id="1" precision="I64">
					<dim>1</dim>
				</port>
				<port id="2" precision="I64">
					<dim>1</dim>
				</port>
				<port id="3" precision="I64">
					<dim>1</dim>
				</port>
				<port id="4" precision="I64">
					<dim>1</dim>
				</port>
			</input>
			<output>
				<port id="5" precision="FP32" names="/Slice_1_output_0">
					<dim>1</dim>
					<dim>64</dim>
					<dim>52</dim>
					<dim>52</dim>
				</port>
			</output>
		</layer>
		<layer id="77" name="onnx::Conv_776_compressed" type="Const" version="opset1">
			<data element_type="f16" shape="64, 64, 3, 3" offset="453154" size="73728" />
			<output>
				<port id="0" precision="FP16">
					<dim>64</dim>
					<dim>64</dim>
					<dim>3</dim>
					<dim>3</dim>
				</port>
			</output>
		</layer>
		<layer id="78" name="onnx::Conv_776" type="Convert" version="opset1">
			<data destination_type="f32" />
			<rt_info>
				<attribute name="decompression" version="0" />
			</rt_info>
			<input>
				<port id="0" precision="FP16">
					<dim>64</dim>
					<dim>64</dim>
					<dim>3</dim>
					<dim>3</dim>
				</port>
			</input>
			<output>
				<port id="1" precision="FP32" names="onnx::Conv_776">
					<dim>64</dim>
					<dim>64</dim>
					<dim>3</dim>
					<dim>3</dim>
				</port>
			</output>
		</layer>
		<layer id="79" name="/models.12/conv8/Conv/WithoutBiases" type="Convolution" version="opset1">
			<data strides="1, 1" dilations="1, 1" pads_begin="1, 1" pads_end="1, 1" auto_pad="explicit" />
			<input>
				<port id="0" precision="FP32">
					<dim>1</dim>
					<dim>64</dim>
					<dim>52</dim>
					<dim>52</dim>
				</port>
				<port id="1" precision="FP32">
					<dim>64</dim>
					<dim>64</dim>
					<dim>3</dim>
					<dim>3</dim>
				</port>
			</input>
			<output>
				<port id="2" precision="FP32">
					<dim>1</dim>
					<dim>64</dim>
					<dim>52</dim>
					<dim>52</dim>
				</port>
			</output>
		</layer>
		<layer id="80" name="Reshape_173_compressed" type="Const" version="opset1">
			<data element_type="f16" shape="1, 64, 1, 1" offset="526882" size="128" />
			<output>
				<port id="0" precision="FP16">
					<dim>1</dim>
					<dim>64</dim>
					<dim>1</dim>
					<dim>1</dim>
				</port>
			</output>
		</layer>
		<layer id="81" name="Reshape_173" type="Convert" version="opset1">
			<data destination_type="f32" />
			<rt_info>
				<attribute name="decompression" version="0" />
			</rt_info>
			<input>
				<port id="0" precision="FP16">
					<dim>1</dim>
					<dim>64</dim>
					<dim>1</dim>
					<dim>1</dim>
				</port>
			</input>
			<output>
				<port id="1" precision="FP32">
					<dim>1</dim>
					<dim>64</dim>
					<dim>1</dim>
					<dim>1</dim>
				</port>
			</output>
		</layer>
		<layer id="82" name="/models.12/conv8/Conv" type="Add" version="opset1">
			<data auto_broadcast="numpy" />
			<input>
				<port id="0" precision="FP32">
					<dim>1</dim>
					<dim>64</dim>
					<dim>52</dim>
					<dim>52</dim>
				</port>
				<port id="1" precision="FP32">
					<dim>1</dim>
					<dim>64</dim>
					<dim>1</dim>
					<dim>1</dim>
				</port>
			</input>
			<output>
				<port id="2" precision="FP32" names="/models.12/conv8/Conv_output_0">
					<dim>1</dim>
					<dim>64</dim>
					<dim>52</dim>
					<dim>52</dim>
				</port>
			</output>
		</layer>
		<layer id="83" name="Constant_175_compressed" type="Const" version="opset1">
			<data element_type="f16" shape="1" offset="1792" size="2" />
			<output>
				<port id="0" precision="FP16">
					<dim>1</dim>
				</port>
			</output>
		</layer>
		<layer id="84" name="Constant_175" type="Convert" version="opset1">
			<data destination_type="f32" />
			<rt_info>
				<attribute name="decompression" version="0" />
			</rt_info>
			<input>
				<port id="0" precision="FP16">
					<dim>1</dim>
				</port>
			</input>
			<output>
				<port id="1" precision="FP32">
					<dim>1</dim>
				</port>
			</output>
		</layer>
		<layer id="85" name="/models.12/leaky8/LeakyRelu" type="PReLU" version="opset1">
			<input>
				<port id="0" precision="FP32">
					<dim>1</dim>
					<dim>64</dim>
					<dim>52</dim>
					<dim>52</dim>
				</port>
				<port id="1" precision="FP32">
					<dim>1</dim>
				</port>
			</input>
			<output>
				<port id="2" precision="FP32" names="/models.12/leaky8/LeakyRelu_output_0">
					<dim>1</dim>
					<dim>64</dim>
					<dim>52</dim>
					<dim>52</dim>
				</port>
			</output>
		</layer>
		<layer id="86" name="onnx::Conv_779_compressed" type="Const" version="opset1">
			<data element_type="f16" shape="64, 64, 3, 3" offset="527010" size="73728" />
			<output>
				<port id="0" precision="FP16">
					<dim>64</dim>
					<dim>64</dim>
					<dim>3</dim>
					<dim>3</dim>
				</port>
			</output>
		</layer>
		<layer id="87" name="onnx::Conv_779" type="Convert" version="opset1">
			<data destination_type="f32" />
			<rt_info>
				<attribute name="decompression" version="0" />
			</rt_info>
			<input>
				<port id="0" precision="FP16">
					<dim>64</dim>
					<dim>64</dim>
					<dim>3</dim>
					<dim>3</dim>
				</port>
			</input>
			<output>
				<port id="1" precision="FP32" names="onnx::Conv_779">
					<dim>64</dim>
					<dim>64</dim>
					<dim>3</dim>
					<dim>3</dim>
				</port>
			</output>
		</layer>
		<layer id="88" name="/models.13/conv9/Conv/WithoutBiases" type="Convolution" version="opset1">
			<data strides="1, 1" dilations="1, 1" pads_begin="1, 1" pads_end="1, 1" auto_pad="explicit" />
			<input>
				<port id="0" precision="FP32">
					<dim>1</dim>
					<dim>64</dim>
					<dim>52</dim>
					<dim>52</dim>
				</port>
				<port id="1" precision="FP32">
					<dim>64</dim>
					<dim>64</dim>
					<dim>3</dim>
					<dim>3</dim>
				</port>
			</input>
			<output>
				<port id="2" precision="FP32">
					<dim>1</dim>
					<dim>64</dim>
					<dim>52</dim>
					<dim>52</dim>
				</port>
			</output>
		</layer>
		<layer id="89" name="Reshape_188_compressed" type="Const" version="opset1">
			<data element_type="f16" shape="1, 64, 1, 1" offset="600738" size="128" />
			<output>
				<port id="0" precision="FP16">
					<dim>1</dim>
					<dim>64</dim>
					<dim>1</dim>
					<dim>1</dim>
				</port>
			</output>
		</layer>
		<layer id="90" name="Reshape_188" type="Convert" version="opset1">
			<data destination_type="f32" />
			<rt_info>
				<attribute name="decompression" version="0" />
			</rt_info>
			<input>
				<port id="0" precision="FP16">
					<dim>1</dim>
					<dim>64</dim>
					<dim>1</dim>
					<dim>1</dim>
				</port>
			</input>
			<output>
				<port id="1" precision="FP32">
					<dim>1</dim>
					<dim>64</dim>
					<dim>1</dim>
					<dim>1</dim>
				</port>
			</output>
		</layer>
		<layer id="91" name="/models.13/conv9/Conv" type="Add" version="opset1">
			<data auto_broadcast="numpy" />
			<input>
				<port id="0" precision="FP32">
					<dim>1</dim>
					<dim>64</dim>
					<dim>52</dim>
					<dim>52</dim>
				</port>
				<port id="1" precision="FP32">
					<dim>1</dim>
					<dim>64</dim>
					<dim>1</dim>
					<dim>1</dim>
				</port>
			</input>
			<output>
				<port id="2" precision="FP32" names="/models.13/conv9/Conv_output_0">
					<dim>1</dim>
					<dim>64</dim>
					<dim>52</dim>
					<dim>52</dim>
				</port>
			</output>
		</layer>
		<layer id="92" name="Constant_190_compressed" type="Const" version="opset1">
			<data element_type="f16" shape="1" offset="1792" size="2" />
			<output>
				<port id="0" precision="FP16">
					<dim>1</dim>
				</port>
			</output>
		</layer>
		<layer id="93" name="Constant_190" type="Convert" version="opset1">
			<data destination_type="f32" />
			<rt_info>
				<attribute name="decompression" version="0" />
			</rt_info>
			<input>
				<port id="0" precision="FP16">
					<dim>1</dim>
				</port>
			</input>
			<output>
				<port id="1" precision="FP32">
					<dim>1</dim>
				</port>
			</output>
		</layer>
		<layer id="94" name="/models.13/leaky9/LeakyRelu" type="PReLU" version="opset1">
			<input>
				<port id="0" precision="FP32">
					<dim>1</dim>
					<dim>64</dim>
					<dim>52</dim>
					<dim>52</dim>
				</port>
				<port id="1" precision="FP32">
					<dim>1</dim>
				</port>
			</input>
			<output>
				<port id="2" precision="FP32" names="/models.13/leaky9/LeakyRelu_output_0">
					<dim>1</dim>
					<dim>64</dim>
					<dim>52</dim>
					<dim>52</dim>
				</port>
			</output>
		</layer>
		<layer id="95" name="/Concat_2" type="Concat" version="opset1">
			<data axis="1" />
			<input>
				<port id="0" precision="FP32">
					<dim>1</dim>
					<dim>64</dim>
					<dim>52</dim>
					<dim>52</dim>
				</port>
				<port id="1" precision="FP32">
					<dim>1</dim>
					<dim>64</dim>
					<dim>52</dim>
					<dim>52</dim>
				</port>
			</input>
			<output>
				<port id="2" precision="FP32" names="/Concat_2_output_0">
					<dim>1</dim>
					<dim>128</dim>
					<dim>52</dim>
					<dim>52</dim>
				</port>
			</output>
		</layer>
		<layer id="96" name="onnx::Conv_782_compressed" type="Const" version="opset1">
			<data element_type="f16" shape="128, 128, 1, 1" offset="600866" size="32768" />
			<output>
				<port id="0" precision="FP16">
					<dim>128</dim>
					<dim>128</dim>
					<dim>1</dim>
					<dim>1</dim>
				</port>
			</output>
		</layer>
		<layer id="97" name="onnx::Conv_782" type="Convert" version="opset1">
			<data destination_type="f32" />
			<rt_info>
				<attribute name="decompression" version="0" />
			</rt_info>
			<input>
				<port id="0" precision="FP16">
					<dim>128</dim>
					<dim>128</dim>
					<dim>1</dim>
					<dim>1</dim>
				</port>
			</input>
			<output>
				<port id="1" precision="FP32" names="onnx::Conv_782">
					<dim>128</dim>
					<dim>128</dim>
					<dim>1</dim>
					<dim>1</dim>
				</port>
			</output>
		</layer>
		<layer id="98" name="/models.15/conv10/Conv/WithoutBiases" type="Convolution" version="opset1">
			<data strides="1, 1" dilations="1, 1" pads_begin="0, 0" pads_end="0, 0" auto_pad="explicit" />
			<input>
				<port id="0" precision="FP32">
					<dim>1</dim>
					<dim>128</dim>
					<dim>52</dim>
					<dim>52</dim>
				</port>
				<port id="1" precision="FP32">
					<dim>128</dim>
					<dim>128</dim>
					<dim>1</dim>
					<dim>1</dim>
				</port>
			</input>
			<output>
				<port id="2" precision="FP32">
					<dim>1</dim>
					<dim>128</dim>
					<dim>52</dim>
					<dim>52</dim>
				</port>
			</output>
		</layer>
		<layer id="99" name="Reshape_204_compressed" type="Const" version="opset1">
			<data element_type="f16" shape="1, 128, 1, 1" offset="633634" size="256" />
			<output>
				<port id="0" precision="FP16">
					<dim>1</dim>
					<dim>128</dim>
					<dim>1</dim>
					<dim>1</dim>
				</port>
			</output>
		</layer>
		<layer id="100" name="Reshape_204" type="Convert" version="opset1">
			<data destination_type="f32" />
			<rt_info>
				<attribute name="decompression" version="0" />
			</rt_info>
			<input>
				<port id="0" precision="FP16">
					<dim>1</dim>
					<dim>128</dim>
					<dim>1</dim>
					<dim>1</dim>
				</port>
			</input>
			<output>
				<port id="1" precision="FP32">
					<dim>1</dim>
					<dim>128</dim>
					<dim>1</dim>
					<dim>1</dim>
				</port>
			</output>
		</layer>
		<layer id="101" name="/models.15/conv10/Conv" type="Add" version="opset1">
			<data auto_broadcast="numpy" />
			<input>
				<port id="0" precision="FP32">
					<dim>1</dim>
					<dim>128</dim>
					<dim>52</dim>
					<dim>52</dim>
				</port>
				<port id="1" precision="FP32">
					<dim>1</dim>
					<dim>128</dim>
					<dim>1</dim>
					<dim>1</dim>
				</port>
			</input>
			<output>
				<port id="2" precision="FP32" names="/models.15/conv10/Conv_output_0">
					<dim>1</dim>
					<dim>128</dim>
					<dim>52</dim>
					<dim>52</dim>
				</port>
			</output>
		</layer>
		<layer id="102" name="Constant_206_compressed" type="Const" version="opset1">
			<data element_type="f16" shape="1" offset="1792" size="2" />
			<output>
				<port id="0" precision="FP16">
					<dim>1</dim>
				</port>
			</output>
		</layer>
		<layer id="103" name="Constant_206" type="Convert" version="opset1">
			<data destination_type="f32" />
			<rt_info>
				<attribute name="decompression" version="0" />
			</rt_info>
			<input>
				<port id="0" precision="FP16">
					<dim>1</dim>
				</port>
			</input>
			<output>
				<port id="1" precision="FP32">
					<dim>1</dim>
				</port>
			</output>
		</layer>
		<layer id="104" name="/models.15/leaky10/LeakyRelu" type="PReLU" version="opset1">
			<input>
				<port id="0" precision="FP32">
					<dim>1</dim>
					<dim>128</dim>
					<dim>52</dim>
					<dim>52</dim>
				</port>
				<port id="1" precision="FP32">
					<dim>1</dim>
				</port>
			</input>
			<output>
				<port id="2" precision="FP32" names="/models.15/leaky10/LeakyRelu_output_0">
					<dim>1</dim>
					<dim>128</dim>
					<dim>52</dim>
					<dim>52</dim>
				</port>
			</output>
		</layer>
		<layer id="105" name="/Concat_3" type="Concat" version="opset1">
			<data axis="1" />
			<input>
				<port id="0" precision="FP32">
					<dim>1</dim>
					<dim>128</dim>
					<dim>52</dim>
					<dim>52</dim>
				</port>
				<port id="1" precision="FP32">
					<dim>1</dim>
					<dim>128</dim>
					<dim>52</dim>
					<dim>52</dim>
				</port>
			</input>
			<output>
				<port id="2" precision="FP32" names="/Concat_3_output_0">
					<dim>1</dim>
					<dim>256</dim>
					<dim>52</dim>
					<dim>52</dim>
				</port>
			</output>
		</layer>
		<layer id="106" name="/models.17/MaxPool" type="MaxPool" version="opset8">
			<data strides="2, 2" dilations="1, 1" pads_begin="0, 0" pads_end="0, 0" kernel="2, 2" rounding_type="floor" auto_pad="explicit" index_element_type="i64" axis="0" />
			<input>
				<port id="0" precision="FP32">
					<dim>1</dim>
					<dim>256</dim>
					<dim>52</dim>
					<dim>52</dim>
				</port>
			</input>
			<output>
				<port id="1" precision="FP32" names="/models.17/MaxPool_output_0">
					<dim>1</dim>
					<dim>256</dim>
					<dim>26</dim>
					<dim>26</dim>
				</port>
				<port id="2" precision="I64">
					<dim>1</dim>
					<dim>256</dim>
					<dim>26</dim>
					<dim>26</dim>
				</port>
			</output>
		</layer>
		<layer id="107" name="onnx::Conv_785_compressed" type="Const" version="opset1">
			<data element_type="f16" shape="256, 256, 3, 3" offset="633890" size="1179648" />
			<output>
				<port id="0" precision="FP16">
					<dim>256</dim>
					<dim>256</dim>
					<dim>3</dim>
					<dim>3</dim>
				</port>
			</output>
		</layer>
		<layer id="108" name="onnx::Conv_785" type="Convert" version="opset1">
			<data destination_type="f32" />
			<rt_info>
				<attribute name="decompression" version="0" />
			</rt_info>
			<input>
				<port id="0" precision="FP16">
					<dim>256</dim>
					<dim>256</dim>
					<dim>3</dim>
					<dim>3</dim>
				</port>
			</input>
			<output>
				<port id="1" precision="FP32" names="onnx::Conv_785">
					<dim>256</dim>
					<dim>256</dim>
					<dim>3</dim>
					<dim>3</dim>
				</port>
			</output>
		</layer>
		<layer id="109" name="/models.18/conv11/Conv/WithoutBiases" type="Convolution" version="opset1">
			<data strides="1, 1" dilations="1, 1" pads_begin="1, 1" pads_end="1, 1" auto_pad="explicit" />
			<input>
				<port id="0" precision="FP32">
					<dim>1</dim>
					<dim>256</dim>
					<dim>26</dim>
					<dim>26</dim>
				</port>
				<port id="1" precision="FP32">
					<dim>256</dim>
					<dim>256</dim>
					<dim>3</dim>
					<dim>3</dim>
				</port>
			</input>
			<output>
				<port id="2" precision="FP32">
					<dim>1</dim>
					<dim>256</dim>
					<dim>26</dim>
					<dim>26</dim>
				</port>
			</output>
		</layer>
		<layer id="110" name="Reshape_221_compressed" type="Const" version="opset1">
			<data element_type="f16" shape="1, 256, 1, 1" offset="1813538" size="512" />
			<output>
				<port id="0" precision="FP16">
					<dim>1</dim>
					<dim>256</dim>
					<dim>1</dim>
					<dim>1</dim>
				</port>
			</output>
		</layer>
		<layer id="111" name="Reshape_221" type="Convert" version="opset1">
			<data destination_type="f32" />
			<rt_info>
				<attribute name="decompression" version="0" />
			</rt_info>
			<input>
				<port id="0" precision="FP16">
					<dim>1</dim>
					<dim>256</dim>
					<dim>1</dim>
					<dim>1</dim>
				</port>
			</input>
			<output>
				<port id="1" precision="FP32">
					<dim>1</dim>
					<dim>256</dim>
					<dim>1</dim>
					<dim>1</dim>
				</port>
			</output>
		</layer>
		<layer id="112" name="/models.18/conv11/Conv" type="Add" version="opset1">
			<data auto_broadcast="numpy" />
			<input>
				<port id="0" precision="FP32">
					<dim>1</dim>
					<dim>256</dim>
					<dim>26</dim>
					<dim>26</dim>
				</port>
				<port id="1" precision="FP32">
					<dim>1</dim>
					<dim>256</dim>
					<dim>1</dim>
					<dim>1</dim>
				</port>
			</input>
			<output>
				<port id="2" precision="FP32" names="/models.18/conv11/Conv_output_0">
					<dim>1</dim>
					<dim>256</dim>
					<dim>26</dim>
					<dim>26</dim>
				</port>
			</output>
		</layer>
		<layer id="113" name="Constant_223_compressed" type="Const" version="opset1">
			<data element_type="f16" shape="1" offset="1792" size="2" />
			<output>
				<port id="0" precision="FP16">
					<dim>1</dim>
				</port>
			</output>
		</layer>
		<layer id="114" name="Constant_223" type="Convert" version="opset1">
			<data destination_type="f32" />
			<rt_info>
				<attribute name="decompression" version="0" />
			</rt_info>
			<input>
				<port id="0" precision="FP16">
					<dim>1</dim>
				</port>
			</input>
			<output>
				<port id="1" precision="FP32">
					<dim>1</dim>
				</port>
			</output>
		</layer>
		<layer id="115" name="/models.18/leaky11/LeakyRelu" type="PReLU" version="opset1">
			<input>
				<port id="0" precision="FP32">
					<dim>1</dim>
					<dim>256</dim>
					<dim>26</dim>
					<dim>26</dim>
				</port>
				<port id="1" precision="FP32">
					<dim>1</dim>
				</port>
			</input>
			<output>
				<port id="2" precision="FP32" names="/models.18/leaky11/LeakyRelu_output_0">
					<dim>1</dim>
					<dim>256</dim>
					<dim>26</dim>
					<dim>26</dim>
				</port>
			</output>
		</layer>
		<layer id="116" name="/Constant_9" type="Const" version="opset1">
			<data element_type="i64" shape="1" offset="453146" size="8" />
			<output>
				<port id="0" precision="I64" names="/Constant_9_output_0">
					<dim>1</dim>
				</port>
			</output>
		</layer>
		<layer id="117" name="/Constant_10" type="Const" version="opset1">
			<data element_type="i64" shape="1" offset="1814050" size="8" />
			<output>
				<port id="0" precision="I64" names="/Constant_10_output_0">
					<dim>1</dim>
				</port>
			</output>
		</layer>
		<layer id="118" name="/Constant_11" type="Const" version="opset1">
			<data element_type="i64" shape="1" offset="112658" size="8" />
			<output>
				<port id="0" precision="I64" names="/Constant_11_output_0">
					<dim>1</dim>
				</port>
			</output>
		</layer>
		<layer id="119" name="/Constant_8" type="Const" version="opset1">
			<data element_type="i64" shape="1" offset="112658" size="8" />
			<output>
				<port id="0" precision="I64" names="/Constant_8_output_0">
					<dim>1</dim>
				</port>
			</output>
		</layer>
		<layer id="120" name="/Slice_2" type="Slice" version="opset8">
			<input>
				<port id="0" precision="FP32">
					<dim>1</dim>
					<dim>256</dim>
					<dim>26</dim>
					<dim>26</dim>
				</port>
				<port id="1" precision="I64">
					<dim>1</dim>
				</port>
				<port id="2" precision="I64">
					<dim>1</dim>
				</port>
				<port id="3" precision="I64">
					<dim>1</dim>
				</port>
				<port id="4" precision="I64">
					<dim>1</dim>
				</port>
			</input>
			<output>
				<port id="5" precision="FP32" names="/Slice_2_output_0">
					<dim>1</dim>
					<dim>128</dim>
					<dim>26</dim>
					<dim>26</dim>
				</port>
			</output>
		</layer>
		<layer id="121" name="onnx::Conv_788_compressed" type="Const" version="opset1">
			<data element_type="f16" shape="128, 128, 3, 3" offset="1814058" size="294912" />
			<output>
				<port id="0" precision="FP16">
					<dim>128</dim>
					<dim>128</dim>
					<dim>3</dim>
					<dim>3</dim>
				</port>
			</output>
		</layer>
		<layer id="122" name="onnx::Conv_788" type="Convert" version="opset1">
			<data destination_type="f32" />
			<rt_info>
				<attribute name="decompression" version="0" />
			</rt_info>
			<input>
				<port id="0" precision="FP16">
					<dim>128</dim>
					<dim>128</dim>
					<dim>3</dim>
					<dim>3</dim>
				</port>
			</input>
			<output>
				<port id="1" precision="FP32" names="onnx::Conv_788">
					<dim>128</dim>
					<dim>128</dim>
					<dim>3</dim>
					<dim>3</dim>
				</port>
			</output>
		</layer>
		<layer id="123" name="/models.20/conv12/Conv/WithoutBiases" type="Convolution" version="opset1">
			<data strides="1, 1" dilations="1, 1" pads_begin="1, 1" pads_end="1, 1" auto_pad="explicit" />
			<input>
				<port id="0" precision="FP32">
					<dim>1</dim>
					<dim>128</dim>
					<dim>26</dim>
					<dim>26</dim>
				</port>
				<port id="1" precision="FP32">
					<dim>128</dim>
					<dim>128</dim>
					<dim>3</dim>
					<dim>3</dim>
				</port>
			</input>
			<output>
				<port id="2" precision="FP32">
					<dim>1</dim>
					<dim>128</dim>
					<dim>26</dim>
					<dim>26</dim>
				</port>
			</output>
		</layer>
		<layer id="124" name="Reshape_241_compressed" type="Const" version="opset1">
			<data element_type="f16" shape="1, 128, 1, 1" offset="2108970" size="256" />
			<output>
				<port id="0" precision="FP16">
					<dim>1</dim>
					<dim>128</dim>
					<dim>1</dim>
					<dim>1</dim>
				</port>
			</output>
		</layer>
		<layer id="125" name="Reshape_241" type="Convert" version="opset1">
			<data destination_type="f32" />
			<rt_info>
				<attribute name="decompression" version="0" />
			</rt_info>
			<input>
				<port id="0" precision="FP16">
					<dim>1</dim>
					<dim>128</dim>
					<dim>1</dim>
					<dim>1</dim>
				</port>
			</input>
			<output>
				<port id="1" precision="FP32">
					<dim>1</dim>
					<dim>128</dim>
					<dim>1</dim>
					<dim>1</dim>
				</port>
			</output>
		</layer>
		<layer id="126" name="/models.20/conv12/Conv" type="Add" version="opset1">
			<data auto_broadcast="numpy" />
			<input>
				<port id="0" precision="FP32">
					<dim>1</dim>
					<dim>128</dim>
					<dim>26</dim>
					<dim>26</dim>
				</port>
				<port id="1" precision="FP32">
					<dim>1</dim>
					<dim>128</dim>
					<dim>1</dim>
					<dim>1</dim>
				</port>
			</input>
			<output>
				<port id="2" precision="FP32" names="/models.20/conv12/Conv_output_0">
					<dim>1</dim>
					<dim>128</dim>
					<dim>26</dim>
					<dim>26</dim>
				</port>
			</output>
		</layer>
		<layer id="127" name="Constant_243_compressed" type="Const" version="opset1">
			<data element_type="f16" shape="1" offset="1792" size="2" />
			<output>
				<port id="0" precision="FP16">
					<dim>1</dim>
				</port>
			</output>
		</layer>
		<layer id="128" name="Constant_243" type="Convert" version="opset1">
			<data destination_type="f32" />
			<rt_info>
				<attribute name="decompression" version="0" />
			</rt_info>
			<input>
				<port id="0" precision="FP16">
					<dim>1</dim>
				</port>
			</input>
			<output>
				<port id="1" precision="FP32">
					<dim>1</dim>
				</port>
			</output>
		</layer>
		<layer id="129" name="/models.20/leaky12/LeakyRelu" type="PReLU" version="opset1">
			<input>
				<port id="0" precision="FP32">
					<dim>1</dim>
					<dim>128</dim>
					<dim>26</dim>
					<dim>26</dim>
				</port>
				<port id="1" precision="FP32">
					<dim>1</dim>
				</port>
			</input>
			<output>
				<port id="2" precision="FP32" names="/models.20/leaky12/LeakyRelu_output_0">
					<dim>1</dim>
					<dim>128</dim>
					<dim>26</dim>
					<dim>26</dim>
				</port>
			</output>
		</layer>
		<layer id="130" name="onnx::Conv_791_compressed" type="Const" version="opset1">
			<data element_type="f16" shape="128, 128, 3, 3" offset="2109226" size="294912" />
			<output>
				<port id="0" precision="FP16">
					<dim>128</dim>
					<dim>128</dim>
					<dim>3</dim>
					<dim>3</dim>
				</port>
			</output>
		</layer>
		<layer id="131" name="onnx::Conv_791" type="Convert" version="opset1">
			<data destination_type="f32" />
			<rt_info>
				<attribute name="decompression" version="0" />
			</rt_info>
			<input>
				<port id="0" precision="FP16">
					<dim>128</dim>
					<dim>128</dim>
					<dim>3</dim>
					<dim>3</dim>
				</port>
			</input>
			<output>
				<port id="1" precision="FP32" names="onnx::Conv_791">
					<dim>128</dim>
					<dim>128</dim>
					<dim>3</dim>
					<dim>3</dim>
				</port>
			</output>
		</layer>
		<layer id="132" name="/models.21/conv13/Conv/WithoutBiases" type="Convolution" version="opset1">
			<data strides="1, 1" dilations="1, 1" pads_begin="1, 1" pads_end="1, 1" auto_pad="explicit" />
			<input>
				<port id="0" precision="FP32">
					<dim>1</dim>
					<dim>128</dim>
					<dim>26</dim>
					<dim>26</dim>
				</port>
				<port id="1" precision="FP32">
					<dim>128</dim>
					<dim>128</dim>
					<dim>3</dim>
					<dim>3</dim>
				</port>
			</input>
			<output>
				<port id="2" precision="FP32">
					<dim>1</dim>
					<dim>128</dim>
					<dim>26</dim>
					<dim>26</dim>
				</port>
			</output>
		</layer>
		<layer id="133" name="Reshape_256_compressed" type="Const" version="opset1">
			<data element_type="f16" shape="1, 128, 1, 1" offset="2404138" size="256" />
			<output>
				<port id="0" precision="FP16">
					<dim>1</dim>
					<dim>128</dim>
					<dim>1</dim>
					<dim>1</dim>
				</port>
			</output>
		</layer>
		<layer id="134" name="Reshape_256" type="Convert" version="opset1">
			<data destination_type="f32" />
			<rt_info>
				<attribute name="decompression" version="0" />
			</rt_info>
			<input>
				<port id="0" precision="FP16">
					<dim>1</dim>
					<dim>128</dim>
					<dim>1</dim>
					<dim>1</dim>
				</port>
			</input>
			<output>
				<port id="1" precision="FP32">
					<dim>1</dim>
					<dim>128</dim>
					<dim>1</dim>
					<dim>1</dim>
				</port>
			</output>
		</layer>
		<layer id="135" name="/models.21/conv13/Conv" type="Add" version="opset1">
			<data auto_broadcast="numpy" />
			<input>
				<port id="0" precision="FP32">
					<dim>1</dim>
					<dim>128</dim>
					<dim>26</dim>
					<dim>26</dim>
				</port>
				<port id="1" precision="FP32">
					<dim>1</dim>
					<dim>128</dim>
					<dim>1</dim>
					<dim>1</dim>
				</port>
			</input>
			<output>
				<port id="2" precision="FP32" names="/models.21/conv13/Conv_output_0">
					<dim>1</dim>
					<dim>128</dim>
					<dim>26</dim>
					<dim>26</dim>
				</port>
			</output>
		</layer>
		<layer id="136" name="Constant_258_compressed" type="Const" version="opset1">
			<data element_type="f16" shape="1" offset="1792" size="2" />
			<output>
				<port id="0" precision="FP16">
					<dim>1</dim>
				</port>
			</output>
		</layer>
		<layer id="137" name="Constant_258" type="Convert" version="opset1">
			<data destination_type="f32" />
			<rt_info>
				<attribute name="decompression" version="0" />
			</rt_info>
			<input>
				<port id="0" precision="FP16">
					<dim>1</dim>
				</port>
			</input>
			<output>
				<port id="1" precision="FP32">
					<dim>1</dim>
				</port>
			</output>
		</layer>
		<layer id="138" name="/models.21/leaky13/LeakyRelu" type="PReLU" version="opset1">
			<input>
				<port id="0" precision="FP32">
					<dim>1</dim>
					<dim>128</dim>
					<dim>26</dim>
					<dim>26</dim>
				</port>
				<port id="1" precision="FP32">
					<dim>1</dim>
				</port>
			</input>
			<output>
				<port id="2" precision="FP32" names="/models.21/leaky13/LeakyRelu_output_0">
					<dim>1</dim>
					<dim>128</dim>
					<dim>26</dim>
					<dim>26</dim>
				</port>
			</output>
		</layer>
		<layer id="139" name="/Concat_4" type="Concat" version="opset1">
			<data axis="1" />
			<input>
				<port id="0" precision="FP32">
					<dim>1</dim>
					<dim>128</dim>
					<dim>26</dim>
					<dim>26</dim>
				</port>
				<port id="1" precision="FP32">
					<dim>1</dim>
					<dim>128</dim>
					<dim>26</dim>
					<dim>26</dim>
				</port>
			</input>
			<output>
				<port id="2" precision="FP32" names="/Concat_4_output_0">
					<dim>1</dim>
					<dim>256</dim>
					<dim>26</dim>
					<dim>26</dim>
				</port>
			</output>
		</layer>
		<layer id="140" name="onnx::Conv_794_compressed" type="Const" version="opset1">
			<data element_type="f16" shape="256, 256, 1, 1" offset="2404394" size="131072" />
			<output>
				<port id="0" precision="FP16">
					<dim>256</dim>
					<dim>256</dim>
					<dim>1</dim>
					<dim>1</dim>
				</port>
			</output>
		</layer>
		<layer id="141" name="onnx::Conv_794" type="Convert" version="opset1">
			<data destination_type="f32" />
			<rt_info>
				<attribute name="decompression" version="0" />
			</rt_info>
			<input>
				<port id="0" precision="FP16">
					<dim>256</dim>
					<dim>256</dim>
					<dim>1</dim>
					<dim>1</dim>
				</port>
			</input>
			<output>
				<port id="1" precision="FP32" names="onnx::Conv_794">
					<dim>256</dim>
					<dim>256</dim>
					<dim>1</dim>
					<dim>1</dim>
				</port>
			</output>
		</layer>
		<layer id="142" name="/models.23/conv14/Conv/WithoutBiases" type="Convolution" version="opset1">
			<data strides="1, 1" dilations="1, 1" pads_begin="0, 0" pads_end="0, 0" auto_pad="explicit" />
			<input>
				<port id="0" precision="FP32">
					<dim>1</dim>
					<dim>256</dim>
					<dim>26</dim>
					<dim>26</dim>
				</port>
				<port id="1" precision="FP32">
					<dim>256</dim>
					<dim>256</dim>
					<dim>1</dim>
					<dim>1</dim>
				</port>
			</input>
			<output>
				<port id="2" precision="FP32">
					<dim>1</dim>
					<dim>256</dim>
					<dim>26</dim>
					<dim>26</dim>
				</port>
			</output>
		</layer>
		<layer id="143" name="Reshape_272_compressed" type="Const" version="opset1">
			<data element_type="f16" shape="1, 256, 1, 1" offset="2535466" size="512" />
			<output>
				<port id="0" precision="FP16">
					<dim>1</dim>
					<dim>256</dim>
					<dim>1</dim>
					<dim>1</dim>
				</port>
			</output>
		</layer>
		<layer id="144" name="Reshape_272" type="Convert" version="opset1">
			<data destination_type="f32" />
			<rt_info>
				<attribute name="decompression" version="0" />
			</rt_info>
			<input>
				<port id="0" precision="FP16">
					<dim>1</dim>
					<dim>256</dim>
					<dim>1</dim>
					<dim>1</dim>
				</port>
			</input>
			<output>
				<port id="1" precision="FP32">
					<dim>1</dim>
					<dim>256</dim>
					<dim>1</dim>
					<dim>1</dim>
				</port>
			</output>
		</layer>
		<layer id="145" name="/models.23/conv14/Conv" type="Add" version="opset1">
			<data auto_broadcast="numpy" />
			<input>
				<port id="0" precision="FP32">
					<dim>1</dim>
					<dim>256</dim>
					<dim>26</dim>
					<dim>26</dim>
				</port>
				<port id="1" precision="FP32">
					<dim>1</dim>
					<dim>256</dim>
					<dim>1</dim>
					<dim>1</dim>
				</port>
			</input>
			<output>
				<port id="2" precision="FP32" names="/models.23/conv14/Conv_output_0">
					<dim>1</dim>
					<dim>256</dim>
					<dim>26</dim>
					<dim>26</dim>
				</port>
			</output>
		</layer>
		<layer id="146" name="Constant_274_compressed" type="Const" version="opset1">
			<data element_type="f16" shape="1" offset="1792" size="2" />
			<output>
				<port id="0" precision="FP16">
					<dim>1</dim>
				</port>
			</output>
		</layer>
		<layer id="147" name="Constant_274" type="Convert" version="opset1">
			<data destination_type="f32" />
			<rt_info>
				<attribute name="decompression" version="0" />
			</rt_info>
			<input>
				<port id="0" precision="FP16">
					<dim>1</dim>
				</port>
			</input>
			<output>
				<port id="1" precision="FP32">
					<dim>1</dim>
				</port>
			</output>
		</layer>
		<layer id="148" name="/models.23/leaky14/LeakyRelu" type="PReLU" version="opset1">
			<input>
				<port id="0" precision="FP32">
					<dim>1</dim>
					<dim>256</dim>
					<dim>26</dim>
					<dim>26</dim>
				</port>
				<port id="1" precision="FP32">
					<dim>1</dim>
				</port>
			</input>
			<output>
				<port id="2" precision="FP32" names="/models.23/leaky14/LeakyRelu_output_0">
					<dim>1</dim>
					<dim>256</dim>
					<dim>26</dim>
					<dim>26</dim>
				</port>
			</output>
		</layer>
		<layer id="149" name="/Concat_5" type="Concat" version="opset1">
			<data axis="1" />
			<input>
				<port id="0" precision="FP32">
					<dim>1</dim>
					<dim>256</dim>
					<dim>26</dim>
					<dim>26</dim>
				</port>
				<port id="1" precision="FP32">
					<dim>1</dim>
					<dim>256</dim>
					<dim>26</dim>
					<dim>26</dim>
				</port>
			</input>
			<output>
				<port id="2" precision="FP32" names="/Concat_5_output_0">
					<dim>1</dim>
					<dim>512</dim>
					<dim>26</dim>
					<dim>26</dim>
				</port>
			</output>
		</layer>
		<layer id="150" name="/models.25/MaxPool" type="MaxPool" version="opset8">
			<data strides="2, 2" dilations="1, 1" pads_begin="0, 0" pads_end="0, 0" kernel="2, 2" rounding_type="floor" auto_pad="explicit" index_element_type="i64" axis="0" />
			<input>
				<port id="0" precision="FP32">
					<dim>1</dim>
					<dim>512</dim>
					<dim>26</dim>
					<dim>26</dim>
				</port>
			</input>
			<output>
				<port id="1" precision="FP32" names="/models.25/MaxPool_output_0">
					<dim>1</dim>
					<dim>512</dim>
					<dim>13</dim>
					<dim>13</dim>
				</port>
				<port id="2" precision="I64">
					<dim>1</dim>
					<dim>512</dim>
					<dim>13</dim>
					<dim>13</dim>
				</port>
			</output>
		</layer>
		<layer id="151" name="onnx::Conv_797_compressed" type="Const" version="opset1">
			<data element_type="f16" shape="512, 512, 3, 3" offset="2535978" size="4718592" />
			<output>
				<port id="0" precision="FP16">
					<dim>512</dim>
					<dim>512</dim>
					<dim>3</dim>
					<dim>3</dim>
				</port>
			</output>
		</layer>
		<layer id="152" name="onnx::Conv_797" type="Convert" version="opset1">
			<data destination_type="f32" />
			<rt_info>
				<attribute name="decompression" version="0" />
			</rt_info>
			<input>
				<port id="0" precision="FP16">
					<dim>512</dim>
					<dim>512</dim>
					<dim>3</dim>
					<dim>3</dim>
				</port>
			</input>
			<output>
				<port id="1" precision="FP32" names="onnx::Conv_797">
					<dim>512</dim>
					<dim>512</dim>
					<dim>3</dim>
					<dim>3</dim>
				</port>
			</output>
		</layer>
		<layer id="153" name="/models.26/conv15/Conv/WithoutBiases" type="Convolution" version="opset1">
			<data strides="1, 1" dilations="1, 1" pads_begin="1, 1" pads_end="1, 1" auto_pad="explicit" />
			<input>
				<port id="0" precision="FP32">
					<dim>1</dim>
					<dim>512</dim>
					<dim>13</dim>
					<dim>13</dim>
				</port>
				<port id="1" precision="FP32">
					<dim>512</dim>
					<dim>512</dim>
					<dim>3</dim>
					<dim>3</dim>
				</port>
			</input>
			<output>
				<port id="2" precision="FP32">
					<dim>1</dim>
					<dim>512</dim>
					<dim>13</dim>
					<dim>13</dim>
				</port>
			</output>
		</layer>
		<layer id="154" name="Reshape_289_compressed" type="Const" version="opset1">
			<data element_type="f16" shape="1, 512, 1, 1" offset="7254570" size="1024" />
			<output>
				<port id="0" precision="FP16">
					<dim>1</dim>
					<dim>512</dim>
					<dim>1</dim>
					<dim>1</dim>
				</port>
			</output>
		</layer>
		<layer id="155" name="Reshape_289" type="Convert" version="opset1">
			<data destination_type="f32" />
			<rt_info>
				<attribute name="decompression" version="0" />
			</rt_info>
			<input>
				<port id="0" precision="FP16">
					<dim>1</dim>
					<dim>512</dim>
					<dim>1</dim>
					<dim>1</dim>
				</port>
			</input>
			<output>
				<port id="1" precision="FP32">
					<dim>1</dim>
					<dim>512</dim>
					<dim>1</dim>
					<dim>1</dim>
				</port>
			</output>
		</layer>
		<layer id="156" name="/models.26/conv15/Conv" type="Add" version="opset1">
			<data auto_broadcast="numpy" />
			<input>
				<port id="0" precision="FP32">
					<dim>1</dim>
					<dim>512</dim>
					<dim>13</dim>
					<dim>13</dim>
				</port>
				<port id="1" precision="FP32">
					<dim>1</dim>
					<dim>512</dim>
					<dim>1</dim>
					<dim>1</dim>
				</port>
			</input>
			<output>
				<port id="2" precision="FP32" names="/models.26/conv15/Conv_output_0">
					<dim>1</dim>
					<dim>512</dim>
					<dim>13</dim>
					<dim>13</dim>
				</port>
			</output>
		</layer>
		<layer id="157" name="Constant_291_compressed" type="Const" version="opset1">
			<data element_type="f16" shape="1" offset="1792" size="2" />
			<output>
				<port id="0" precision="FP16">
					<dim>1</dim>
				</port>
			</output>
		</layer>
		<layer id="158" name="Constant_291" type="Convert" version="opset1">
			<data destination_type="f32" />
			<rt_info>
				<attribute name="decompression" version="0" />
			</rt_info>
			<input>
				<port id="0" precision="FP16">
					<dim>1</dim>
				</port>
			</input>
			<output>
				<port id="1" precision="FP32">
					<dim>1</dim>
				</port>
			</output>
		</layer>
		<layer id="159" name="/models.26/leaky15/LeakyRelu" type="PReLU" version="opset1">
			<input>
				<port id="0" precision="FP32">
					<dim>1</dim>
					<dim>512</dim>
					<dim>13</dim>
					<dim>13</dim>
				</port>
				<port id="1" precision="FP32">
					<dim>1</dim>
				</port>
			</input>
			<output>
				<port id="2" precision="FP32" names="/models.26/leaky15/LeakyRelu_output_0">
					<dim>1</dim>
					<dim>512</dim>
					<dim>13</dim>
					<dim>13</dim>
				</port>
			</output>
		</layer>
		<layer id="160" name="onnx::Conv_800_compressed" type="Const" version="opset1">
			<data element_type="f16" shape="256, 512, 1, 1" offset="7255594" size="262144" />
			<output>
				<port id="0" precision="FP16">
					<dim>256</dim>
					<dim>512</dim>
					<dim>1</dim>
					<dim>1</dim>
				</port>
			</output>
		</layer>
		<layer id="161" name="onnx::Conv_800" type="Convert" version="opset1">
			<data destination_type="f32" />
			<rt_info>
				<attribute name="decompression" version="0" />
			</rt_info>
			<input>
				<port id="0" precision="FP16">
					<dim>256</dim>
					<dim>512</dim>
					<dim>1</dim>
					<dim>1</dim>
				</port>
			</input>
			<output>
				<port id="1" precision="FP32" names="onnx::Conv_800">
					<dim>256</dim>
					<dim>512</dim>
					<dim>1</dim>
					<dim>1</dim>
				</port>
			</output>
		</layer>
		<layer id="162" name="/models.27/conv16/Conv/WithoutBiases" type="Convolution" version="opset1">
			<data strides="1, 1" dilations="1, 1" pads_begin="0, 0" pads_end="0, 0" auto_pad="explicit" />
			<input>
				<port id="0" precision="FP32">
					<dim>1</dim>
					<dim>512</dim>
					<dim>13</dim>
					<dim>13</dim>
				</port>
				<port id="1" precision="FP32">
					<dim>256</dim>
					<dim>512</dim>
					<dim>1</dim>
					<dim>1</dim>
				</port>
			</input>
			<output>
				<port id="2" precision="FP32">
					<dim>1</dim>
					<dim>256</dim>
					<dim>13</dim>
					<dim>13</dim>
				</port>
			</output>
		</layer>
		<layer id="163" name="Reshape_304_compressed" type="Const" version="opset1">
			<data element_type="f16" shape="1, 256, 1, 1" offset="7517738" size="512" />
			<output>
				<port id="0" precision="FP16">
					<dim>1</dim>
					<dim>256</dim>
					<dim>1</dim>
					<dim>1</dim>
				</port>
			</output>
		</layer>
		<layer id="164" name="Reshape_304" type="Convert" version="opset1">
			<data destination_type="f32" />
			<rt_info>
				<attribute name="decompression" version="0" />
			</rt_info>
			<input>
				<port id="0" precision="FP16">
					<dim>1</dim>
					<dim>256</dim>
					<dim>1</dim>
					<dim>1</dim>
				</port>
			</input>
			<output>
				<port id="1" precision="FP32">
					<dim>1</dim>
					<dim>256</dim>
					<dim>1</dim>
					<dim>1</dim>
				</port>
			</output>
		</layer>
		<layer id="165" name="/models.27/conv16/Conv" type="Add" version="opset1">
			<data auto_broadcast="numpy" />
			<input>
				<port id="0" precision="FP32">
					<dim>1</dim>
					<dim>256</dim>
					<dim>13</dim>
					<dim>13</dim>
				</port>
				<port id="1" precision="FP32">
					<dim>1</dim>
					<dim>256</dim>
					<dim>1</dim>
					<dim>1</dim>
				</port>
			</input>
			<output>
				<port id="2" precision="FP32" names="/models.27/conv16/Conv_output_0">
					<dim>1</dim>
					<dim>256</dim>
					<dim>13</dim>
					<dim>13</dim>
				</port>
			</output>
		</layer>
		<layer id="166" name="Constant_306_compressed" type="Const" version="opset1">
			<data element_type="f16" shape="1" offset="1792" size="2" />
			<output>
				<port id="0" precision="FP16">
					<dim>1</dim>
				</port>
			</output>
		</layer>
		<layer id="167" name="Constant_306" type="Convert" version="opset1">
			<data destination_type="f32" />
			<rt_info>
				<attribute name="decompression" version="0" />
			</rt_info>
			<input>
				<port id="0" precision="FP16">
					<dim>1</dim>
				</port>
			</input>
			<output>
				<port id="1" precision="FP32">
					<dim>1</dim>
				</port>
			</output>
		</layer>
		<layer id="168" name="/models.27/leaky16/LeakyRelu" type="PReLU" version="opset1">
			<input>
				<port id="0" precision="FP32">
					<dim>1</dim>
					<dim>256</dim>
					<dim>13</dim>
					<dim>13</dim>
				</port>
				<port id="1" precision="FP32">
					<dim>1</dim>
				</port>
			</input>
			<output>
				<port id="2" precision="FP32" names="/models.27/leaky16/LeakyRelu_output_0">
					<dim>1</dim>
					<dim>256</dim>
					<dim>13</dim>
					<dim>13</dim>
				</port>
			</output>
		</layer>
		<layer id="169" name="onnx::Conv_803_compressed" type="Const" version="opset1">
			<data element_type="f16" shape="512, 256, 3, 3" offset="7518250" size="2359296" />
			<output>
				<port id="0" precision="FP16">
					<dim>512</dim>
					<dim>256</dim>
					<dim>3</dim>
					<dim>3</dim>
				</port>
			</output>
		</layer>
		<layer id="170" name="onnx::Conv_803" type="Convert" version="opset1">
			<data destination_type="f32" />
			<rt_info>
				<attribute name="decompression" version="0" />
			</rt_info>
			<input>
				<port id="0" precision="FP16">
					<dim>512</dim>
					<dim>256</dim>
					<dim>3</dim>
					<dim>3</dim>
				</port>
			</input>
			<output>
				<port id="1" precision="FP32" names="onnx::Conv_803">
					<dim>512</dim>
					<dim>256</dim>
					<dim>3</dim>
					<dim>3</dim>
				</port>
			</output>
		</layer>
		<layer id="171" name="/models.28/conv17/Conv/WithoutBiases" type="Convolution" version="opset1">
			<data strides="1, 1" dilations="1, 1" pads_begin="1, 1" pads_end="1, 1" auto_pad="explicit" />
			<input>
				<port id="0" precision="FP32">
					<dim>1</dim>
					<dim>256</dim>
					<dim>13</dim>
					<dim>13</dim>
				</port>
				<port id="1" precision="FP32">
					<dim>512</dim>
					<dim>256</dim>
					<dim>3</dim>
					<dim>3</dim>
				</port>
			</input>
			<output>
				<port id="2" precision="FP32">
					<dim>1</dim>
					<dim>512</dim>
					<dim>13</dim>
					<dim>13</dim>
				</port>
			</output>
		</layer>
		<layer id="172" name="Reshape_319_compressed" type="Const" version="opset1">
			<data element_type="f16" shape="1, 512, 1, 1" offset="9877546" size="1024" />
			<output>
				<port id="0" precision="FP16">
					<dim>1</dim>
					<dim>512</dim>
					<dim>1</dim>
					<dim>1</dim>
				</port>
			</output>
		</layer>
		<layer id="173" name="Reshape_319" type="Convert" version="opset1">
			<data destination_type="f32" />
			<rt_info>
				<attribute name="decompression" version="0" />
			</rt_info>
			<input>
				<port id="0" precision="FP16">
					<dim>1</dim>
					<dim>512</dim>
					<dim>1</dim>
					<dim>1</dim>
				</port>
			</input>
			<output>
				<port id="1" precision="FP32">
					<dim>1</dim>
					<dim>512</dim>
					<dim>1</dim>
					<dim>1</dim>
				</port>
			</output>
		</layer>
		<layer id="174" name="/models.28/conv17/Conv" type="Add" version="opset1">
			<data auto_broadcast="numpy" />
			<input>
				<port id="0" precision="FP32">
					<dim>1</dim>
					<dim>512</dim>
					<dim>13</dim>
					<dim>13</dim>
				</port>
				<port id="1" precision="FP32">
					<dim>1</dim>
					<dim>512</dim>
					<dim>1</dim>
					<dim>1</dim>
				</port>
			</input>
			<output>
				<port id="2" precision="FP32" names="/models.28/conv17/Conv_output_0">
					<dim>1</dim>
					<dim>512</dim>
					<dim>13</dim>
					<dim>13</dim>
				</port>
			</output>
		</layer>
		<layer id="175" name="Constant_321_compressed" type="Const" version="opset1">
			<data element_type="f16" shape="1" offset="1792" size="2" />
			<output>
				<port id="0" precision="FP16">
					<dim>1</dim>
				</port>
			</output>
		</layer>
		<layer id="176" name="Constant_321" type="Convert" version="opset1">
			<data destination_type="f32" />
			<rt_info>
				<attribute name="decompression" version="0" />
			</rt_info>
			<input>
				<port id="0" precision="FP16">
					<dim>1</dim>
				</port>
			</input>
			<output>
				<port id="1" precision="FP32">
					<dim>1</dim>
				</port>
			</output>
		</layer>
		<layer id="177" name="/models.28/leaky17/LeakyRelu" type="PReLU" version="opset1">
			<input>
				<port id="0" precision="FP32">
					<dim>1</dim>
					<dim>512</dim>
					<dim>13</dim>
					<dim>13</dim>
				</port>
				<port id="1" precision="FP32">
					<dim>1</dim>
				</port>
			</input>
			<output>
				<port id="2" precision="FP32" names="/models.28/leaky17/LeakyRelu_output_0">
					<dim>1</dim>
					<dim>512</dim>
					<dim>13</dim>
					<dim>13</dim>
				</port>
			</output>
		</layer>
		<layer id="178" name="models.29.conv18.weight_compressed" type="Const" version="opset1">
			<data element_type="f16" shape="21, 512, 1, 1" offset="9878570" size="21504" />
			<output>
				<port id="0" precision="FP16">
					<dim>21</dim>
					<dim>512</dim>
					<dim>1</dim>
					<dim>1</dim>
				</port>
			</output>
		</layer>
		<layer id="179" name="models.29.conv18.weight" type="Convert" version="opset1">
			<data destination_type="f32" />
			<rt_info>
				<attribute name="decompression" version="0" />
			</rt_info>
			<input>
				<port id="0" precision="FP16">
					<dim>21</dim>
					<dim>512</dim>
					<dim>1</dim>
					<dim>1</dim>
				</port>
			</input>
			<output>
				<port id="1" precision="FP32" names="models.29.conv18.weight">
					<dim>21</dim>
					<dim>512</dim>
					<dim>1</dim>
					<dim>1</dim>
				</port>
			</output>
		</layer>
		<layer id="180" name="/models.29/conv18/Conv/WithoutBiases" type="Convolution" version="opset1">
			<data strides="1, 1" dilations="1, 1" pads_begin="0, 0" pads_end="0, 0" auto_pad="explicit" />
			<input>
				<port id="0" precision="FP32">
					<dim>1</dim>
					<dim>512</dim>
					<dim>13</dim>
					<dim>13</dim>
				</port>
				<port id="1" precision="FP32">
					<dim>21</dim>
					<dim>512</dim>
					<dim>1</dim>
					<dim>1</dim>
				</port>
			</input>
			<output>
				<port id="2" precision="FP32">
					<dim>1</dim>
					<dim>21</dim>
					<dim>13</dim>
					<dim>13</dim>
				</port>
			</output>
		</layer>
		<layer id="181" name="Reshape_334_compressed" type="Const" version="opset1">
			<data element_type="f16" shape="1, 21, 1, 1" offset="9900074" size="42" />
			<output>
				<port id="0" precision="FP16">
					<dim>1</dim>
					<dim>21</dim>
					<dim>1</dim>
					<dim>1</dim>
				</port>
			</output>
		</layer>
		<layer id="182" name="Reshape_334" type="Convert" version="opset1">
			<data destination_type="f32" />
			<rt_info>
				<attribute name="decompression" version="0" />
			</rt_info>
			<input>
				<port id="0" precision="FP16">
					<dim>1</dim>
					<dim>21</dim>
					<dim>1</dim>
					<dim>1</dim>
				</port>
			</input>
			<output>
				<port id="1" precision="FP32">
					<dim>1</dim>
					<dim>21</dim>
					<dim>1</dim>
					<dim>1</dim>
				</port>
			</output>
		</layer>
		<layer id="183" name="/models.29/conv18/Conv" type="Add" version="opset1">
			<data auto_broadcast="numpy" />
			<input>
				<port id="0" precision="FP32">
					<dim>1</dim>
					<dim>21</dim>
					<dim>13</dim>
					<dim>13</dim>
				</port>
				<port id="1" precision="FP32">
					<dim>1</dim>
					<dim>21</dim>
					<dim>1</dim>
					<dim>1</dim>
				</port>
			</input>
			<output>
				<port id="2" precision="FP32" names="/models.29/conv18/Conv_output_0">
					<dim>1</dim>
					<dim>21</dim>
					<dim>13</dim>
					<dim>13</dim>
				</port>
			</output>
		</layer>
		<layer id="184" name="/models.30/Constant_13" type="Const" version="opset1">
			<data element_type="i64" shape="1" offset="9900116" size="8" />
			<output>
				<port id="0" precision="I64" names="/models.30/Constant_13_output_0">
					<dim>1</dim>
				</port>
			</output>
		</layer>
		<layer id="185" name="/models.30/Constant_14" type="Const" version="opset1">
			<data element_type="i64" shape="1" offset="9900124" size="8" />
			<output>
				<port id="0" precision="I64" names="/models.30/Constant_14_output_0">
					<dim>1</dim>
				</port>
			</output>
		</layer>
		<layer id="186" name="/models.30/Constant_15" type="Const" version="opset1">
			<data element_type="i64" shape="1" offset="112658" size="8" />
			<output>
				<port id="0" precision="I64" names="/models.30/Constant_15_output_0">
					<dim>1</dim>
				</port>
			</output>
		</layer>
		<layer id="187" name="/models.30/Constant_12" type="Const" version="opset1">
			<data element_type="i64" shape="1" offset="112658" size="8" />
			<output>
				<port id="0" precision="I64" names="/models.30/Constant_12_output_0">
					<dim>1</dim>
				</port>
			</output>
		</layer>
		<layer id="188" name="/models.30/Slice_3" type="Slice" version="opset8">
			<input>
				<port id="0" precision="FP32">
					<dim>1</dim>
					<dim>21</dim>
					<dim>13</dim>
					<dim>13</dim>
				</port>
				<port id="1" precision="I64">
					<dim>1</dim>
				</port>
				<port id="2" precision="I64">
					<dim>1</dim>
				</port>
				<port id="3" precision="I64">
					<dim>1</dim>
				</port>
				<port id="4" precision="I64">
					<dim>1</dim>
				</port>
			</input>
			<output>
				<port id="5" precision="FP32" names="/models.30/Slice_3_output_0">
					<dim>1</dim>
					<dim>2</dim>
					<dim>13</dim>
					<dim>13</dim>
				</port>
			</output>
		</layer>
		<layer id="189" name="/models.30/Constant_29" type="Const" version="opset1">
			<data element_type="i64" shape="1" offset="9900132" size="8" />
			<output>
				<port id="0" precision="I64" names="/models.30/Constant_29_output_0">
					<dim>1</dim>
				</port>
			</output>
		</layer>
		<layer id="190" name="/models.30/Constant_30" type="Const" version="opset1">
			<data element_type="i64" shape="1" offset="9900140" size="8" />
			<output>
				<port id="0" precision="I64" names="/models.30/Constant_30_output_0">
					<dim>1</dim>
				</port>
			</output>
		</layer>
		<layer id="191" name="/models.30/Constant_31" type="Const" version="opset1">
			<data element_type="i64" shape="1" offset="112658" size="8" />
			<output>
				<port id="0" precision="I64" names="/models.30/Constant_31_output_0">
					<dim>1</dim>
				</port>
			</output>
		</layer>
		<layer id="192" name="/models.30/Constant_28" type="Const" version="opset1">
			<data element_type="i64" shape="1" offset="112658" size="8" />
			<output>
				<port id="0" precision="I64" names="/models.30/Constant_28_output_0">
					<dim>1</dim>
				</port>
			</output>
		</layer>
		<layer id="193" name="/models.30/Slice_7" type="Slice" version="opset8">
			<input>
				<port id="0" precision="FP32">
					<dim>1</dim>
					<dim>21</dim>
					<dim>13</dim>
					<dim>13</dim>
				</port>
				<port id="1" precision="I64">
					<dim>1</dim>
				</port>
				<port id="2" precision="I64">
					<dim>1</dim>
				</port>
				<port id="3" precision="I64">
					<dim>1</dim>
				</port>
				<port id="4" precision="I64">
					<dim>1</dim>
				</port>
			</input>
			<output>
				<port id="5" precision="FP32" names="/models.30/Slice_7_output_0">
					<dim>1</dim>
					<dim>2</dim>
					<dim>13</dim>
					<dim>13</dim>
				</port>
			</output>
		</layer>
		<layer id="194" name="/models.30/Constant_45" type="Const" version="opset1">
			<data element_type="i64" shape="1" offset="9900148" size="8" />
			<output>
				<port id="0" precision="I64" names="/models.30/Constant_45_output_0">
					<dim>1</dim>
				</port>
			</output>
		</layer>
		<layer id="195" name="/models.30/Constant_46" type="Const" version="opset1">
			<data element_type="i64" shape="1" offset="9900156" size="8" />
			<output>
				<port id="0" precision="I64" names="/models.30/Constant_46_output_0">
					<dim>1</dim>
				</port>
			</output>
		</layer>
		<layer id="196" name="/models.30/Constant_47" type="Const" version="opset1">
			<data element_type="i64" shape="1" offset="112658" size="8" />
			<output>
				<port id="0" precision="I64" names="/models.30/Constant_47_output_0">
					<dim>1</dim>
				</port>
			</output>
		</layer>
		<layer id="197" name="/models.30/Constant_44" type="Const" version="opset1">
			<data element_type="i64" shape="1" offset="112658" size="8" />
			<output>
				<port id="0" precision="I64" names="/models.30/Constant_44_output_0">
					<dim>1</dim>
				</port>
			</output>
		</layer>
		<layer id="198" name="/models.30/Slice_11" type="Slice" version="opset8">
			<input>
				<port id="0" precision="FP32">
					<dim>1</dim>
					<dim>21</dim>
					<dim>13</dim>
					<dim>13</dim>
				</port>
				<port id="1" precision="I64">
					<dim>1</dim>
				</port>
				<port id="2" precision="I64">
					<dim>1</dim>
				</port>
				<port id="3" precision="I64">
					<dim>1</dim>
				</port>
				<port id="4" precision="I64">
					<dim>1</dim>
				</port>
			</input>
			<output>
				<port id="5" precision="FP32" names="/models.30/Slice_11_output_0">
					<dim>1</dim>
					<dim>2</dim>
					<dim>13</dim>
					<dim>13</dim>
				</port>
			</output>
		</layer>
		<layer id="199" name="/models.30/Concat_3" type="Concat" version="opset1">
			<data axis="1" />
			<input>
				<port id="0" precision="FP32">
					<dim>1</dim>
					<dim>2</dim>
					<dim>13</dim>
					<dim>13</dim>
				</port>
				<port id="1" precision="FP32">
					<dim>1</dim>
					<dim>2</dim>
					<dim>13</dim>
					<dim>13</dim>
				</port>
				<port id="2" precision="FP32">
					<dim>1</dim>
					<dim>2</dim>
					<dim>13</dim>
					<dim>13</dim>
				</port>
			</input>
			<output>
				<port id="3" precision="FP32" names="/models.30/Concat_3_output_0">
					<dim>1</dim>
					<dim>6</dim>
					<dim>13</dim>
					<dim>13</dim>
				</port>
			</output>
		</layer>
		<layer id="200" name="/models.30/Constant_49" type="Const" version="opset1">
			<data element_type="i64" shape="4" offset="9900164" size="32" />
			<rt_info>
				<attribute name="precise" version="0" />
			</rt_info>
			<output>
				<port id="0" precision="I64" names="/models.30/Constant_49_output_0">
					<dim>4</dim>
				</port>
			</output>
		</layer>
		<layer id="201" name="/models.30/Reshape_1" type="Reshape" version="opset1">
			<data special_zero="true" />
			<input>
				<port id="0" precision="FP32">
					<dim>1</dim>
					<dim>6</dim>
					<dim>13</dim>
					<dim>13</dim>
				</port>
				<port id="1" precision="I64">
					<dim>4</dim>
				</port>
			</input>
			<output>
				<port id="2" precision="FP32" names="/models.30/Reshape_1_output_0">
					<dim>1</dim>
					<dim>3</dim>
					<dim>2</dim>
					<dim>169</dim>
				</port>
			</output>
		</layer>
		<layer id="202" name="Constant_404" type="Const" version="opset1">
			<data element_type="i64" shape="4" offset="9900196" size="32" />
			<output>
				<port id="0" precision="I64">
					<dim>4</dim>
				</port>
			</output>
		</layer>
		<layer id="203" name="/models.30/Transpose" type="Transpose" version="opset1">
			<input>
				<port id="0" precision="FP32">
					<dim>1</dim>
					<dim>3</dim>
					<dim>2</dim>
					<dim>169</dim>
				</port>
				<port id="1" precision="I64">
					<dim>4</dim>
				</port>
			</input>
			<output>
				<port id="2" precision="FP32" names="/models.30/Transpose_output_0">
					<dim>1</dim>
					<dim>3</dim>
					<dim>169</dim>
					<dim>2</dim>
				</port>
			</output>
		</layer>
		<layer id="204" name="/models.30/Constant_50" type="Const" version="opset1">
			<data element_type="i64" shape="3" offset="9900228" size="24" />
			<rt_info>
				<attribute name="precise" version="0" />
			</rt_info>
			<output>
				<port id="0" precision="I64" names="/models.30/Constant_50_output_0">
					<dim>3</dim>
				</port>
			</output>
		</layer>
		<layer id="205" name="/models.30/Reshape_2" type="Reshape" version="opset1">
			<data special_zero="true" />
			<input>
				<port id="0" precision="FP32">
					<dim>1</dim>
					<dim>3</dim>
					<dim>169</dim>
					<dim>2</dim>
				</port>
				<port id="1" precision="I64">
					<dim>3</dim>
				</port>
			</input>
			<output>
				<port id="2" precision="FP32" names="/models.30/Reshape_2_output_0">
					<dim>1</dim>
					<dim>507</dim>
					<dim>2</dim>
				</port>
			</output>
		</layer>
		<layer id="206" name="/models.30/Sigmoid_2" type="Sigmoid" version="opset1">
			<input>
				<port id="0" precision="FP32">
					<dim>1</dim>
					<dim>507</dim>
					<dim>2</dim>
				</port>
			</input>
			<output>
				<port id="1" precision="FP32" names="/models.30/Sigmoid_2_output_0">
					<dim>1</dim>
					<dim>507</dim>
					<dim>2</dim>
				</port>
			</output>
		</layer>
		<layer id="207" name="/models.30/Constant_9" type="Const" version="opset1">
			<data element_type="i64" shape="1" offset="9900252" size="8" />
			<output>
				<port id="0" precision="I64" names="/models.30/Constant_9_output_0">
					<dim>1</dim>
				</port>
			</output>
		</layer>
		<layer id="208" name="/models.30/Constant_10" type="Const" version="opset1">
			<data element_type="i64" shape="1" offset="9900116" size="8" />
			<output>
				<port id="0" precision="I64" names="/models.30/Constant_10_output_0">
					<dim>1</dim>
				</port>
			</output>
		</layer>
		<layer id="209" name="/models.30/Constant_11" type="Const" version="opset1">
			<data element_type="i64" shape="1" offset="112658" size="8" />
			<output>
				<port id="0" precision="I64" names="/models.30/Constant_11_output_0">
					<dim>1</dim>
				</port>
			</output>
		</layer>
		<layer id="210" name="/models.30/Constant_8" type="Const" version="opset1">
			<data element_type="i64" shape="1" offset="112658" size="8" />
			<output>
				<port id="0" precision="I64" names="/models.30/Constant_8_output_0">
					<dim>1</dim>
				</port>
			</output>
		</layer>
		<layer id="211" name="/models.30/Slice_2" type="Slice" version="opset8">
			<input>
				<port id="0" precision="FP32">
					<dim>1</dim>
					<dim>21</dim>
					<dim>13</dim>
					<dim>13</dim>
				</port>
				<port id="1" precision="I64">
					<dim>1</dim>
				</port>
				<port id="2" precision="I64">
					<dim>1</dim>
				</port>
				<port id="3" precision="I64">
					<dim>1</dim>
				</port>
				<port id="4" precision="I64">
					<dim>1</dim>
				</port>
			</input>
			<output>
				<port id="5" precision="FP32" names="/models.30/Slice_2_output_0">
					<dim>1</dim>
					<dim>1</dim>
					<dim>13</dim>
					<dim>13</dim>
				</port>
			</output>
		</layer>
		<layer id="212" name="/models.30/Constant_25" type="Const" version="opset1">
			<data element_type="i64" shape="1" offset="9900260" size="8" />
			<output>
				<port id="0" precision="I64" names="/models.30/Constant_25_output_0">
					<dim>1</dim>
				</port>
			</output>
		</layer>
		<layer id="213" name="/models.30/Constant_26" type="Const" version="opset1">
			<data element_type="i64" shape="1" offset="9900132" size="8" />
			<output>
				<port id="0" precision="I64" names="/models.30/Constant_26_output_0">
					<dim>1</dim>
				</port>
			</output>
		</layer>
		<layer id="214" name="/models.30/Constant_27" type="Const" version="opset1">
			<data element_type="i64" shape="1" offset="112658" size="8" />
			<output>
				<port id="0" precision="I64" names="/models.30/Constant_27_output_0">
					<dim>1</dim>
				</port>
			</output>
		</layer>
		<layer id="215" name="/models.30/Constant_24" type="Const" version="opset1">
			<data element_type="i64" shape="1" offset="112658" size="8" />
			<output>
				<port id="0" precision="I64" names="/models.30/Constant_24_output_0">
					<dim>1</dim>
				</port>
			</output>
		</layer>
		<layer id="216" name="/models.30/Slice_6" type="Slice" version="opset8">
			<input>
				<port id="0" precision="FP32">
					<dim>1</dim>
					<dim>21</dim>
					<dim>13</dim>
					<dim>13</dim>
				</port>
				<port id="1" precision="I64">
					<dim>1</dim>
				</port>
				<port id="2" precision="I64">
					<dim>1</dim>
				</port>
				<port id="3" precision="I64">
					<dim>1</dim>
				</port>
				<port id="4" precision="I64">
					<dim>1</dim>
				</port>
			</input>
			<output>
				<port id="5" precision="FP32" names="/models.30/Slice_6_output_0">
					<dim>1</dim>
					<dim>1</dim>
					<dim>13</dim>
					<dim>13</dim>
				</port>
			</output>
		</layer>
		<layer id="217" name="/models.30/Constant_41" type="Const" version="opset1">
			<data element_type="i64" shape="1" offset="9900268" size="8" />
			<output>
				<port id="0" precision="I64" names="/models.30/Constant_41_output_0">
					<dim>1</dim>
				</port>
			</output>
		</layer>
		<layer id="218" name="/models.30/Constant_42" type="Const" version="opset1">
			<data element_type="i64" shape="1" offset="9900148" size="8" />
			<output>
				<port id="0" precision="I64" names="/models.30/Constant_42_output_0">
					<dim>1</dim>
				</port>
			</output>
		</layer>
		<layer id="219" name="/models.30/Constant_43" type="Const" version="opset1">
			<data element_type="i64" shape="1" offset="112658" size="8" />
			<output>
				<port id="0" precision="I64" names="/models.30/Constant_43_output_0">
					<dim>1</dim>
				</port>
			</output>
		</layer>
		<layer id="220" name="/models.30/Constant_40" type="Const" version="opset1">
			<data element_type="i64" shape="1" offset="112658" size="8" />
			<output>
				<port id="0" precision="I64" names="/models.30/Constant_40_output_0">
					<dim>1</dim>
				</port>
			</output>
		</layer>
		<layer id="221" name="/models.30/Slice_10" type="Slice" version="opset8">
			<input>
				<port id="0" precision="FP32">
					<dim>1</dim>
					<dim>21</dim>
					<dim>13</dim>
					<dim>13</dim>
				</port>
				<port id="1" precision="I64">
					<dim>1</dim>
				</port>
				<port id="2" precision="I64">
					<dim>1</dim>
				</port>
				<port id="3" precision="I64">
					<dim>1</dim>
				</port>
				<port id="4" precision="I64">
					<dim>1</dim>
				</port>
			</input>
			<output>
				<port id="5" precision="FP32" names="/models.30/Slice_10_output_0">
					<dim>1</dim>
					<dim>1</dim>
					<dim>13</dim>
					<dim>13</dim>
				</port>
			</output>
		</layer>
		<layer id="222" name="/models.30/Concat_2" type="Concat" version="opset1">
			<data axis="1" />
			<input>
				<port id="0" precision="FP32">
					<dim>1</dim>
					<dim>1</dim>
					<dim>13</dim>
					<dim>13</dim>
				</port>
				<port id="1" precision="FP32">
					<dim>1</dim>
					<dim>1</dim>
					<dim>13</dim>
					<dim>13</dim>
				</port>
				<port id="2" precision="FP32">
					<dim>1</dim>
					<dim>1</dim>
					<dim>13</dim>
					<dim>13</dim>
				</port>
			</input>
			<output>
				<port id="3" precision="FP32" names="/models.30/Concat_2_output_0">
					<dim>1</dim>
					<dim>3</dim>
					<dim>13</dim>
					<dim>13</dim>
				</port>
			</output>
		</layer>
		<layer id="223" name="/models.30/Constant_48" type="Const" version="opset1">
			<data element_type="i64" shape="2" offset="9900276" size="16" />
			<rt_info>
				<attribute name="precise" version="0" />
			</rt_info>
			<output>
				<port id="0" precision="I64" names="/models.30/Constant_48_output_0">
					<dim>2</dim>
				</port>
			</output>
		</layer>
		<layer id="224" name="/models.30/Reshape" type="Reshape" version="opset1">
			<data special_zero="true" />
			<input>
				<port id="0" precision="FP32">
					<dim>1</dim>
					<dim>3</dim>
					<dim>13</dim>
					<dim>13</dim>
				</port>
				<port id="1" precision="I64">
					<dim>2</dim>
				</port>
			</input>
			<output>
				<port id="2" precision="FP32" names="/models.30/Reshape_output_0">
					<dim>1</dim>
					<dim>507</dim>
				</port>
			</output>
		</layer>
		<layer id="225" name="/models.30/Sigmoid_1" type="Sigmoid" version="opset1">
			<input>
				<port id="0" precision="FP32">
					<dim>1</dim>
					<dim>507</dim>
				</port>
			</input>
			<output>
				<port id="1" precision="FP32" names="/models.30/Sigmoid_1_output_0">
					<dim>1</dim>
					<dim>507</dim>
				</port>
			</output>
		</layer>
		<layer id="226" name="/models.30/Constant_123" type="Const" version="opset1">
			<data element_type="i64" shape="3" offset="9900292" size="24" />
			<rt_info>
				<attribute name="precise" version="0" />
			</rt_info>
			<output>
				<port id="0" precision="I64" names="/models.30/Constant_123_output_0">
					<dim>3</dim>
				</port>
			</output>
		</layer>
		<layer id="227" name="/models.30/Reshape_8" type="Reshape" version="opset1">
			<data special_zero="true" />
			<input>
				<port id="0" precision="FP32">
					<dim>1</dim>
					<dim>507</dim>
				</port>
				<port id="1" precision="I64">
					<dim>3</dim>
				</port>
			</input>
			<output>
				<port id="2" precision="FP32" names="/models.30/Reshape_8_output_0">
					<dim>1</dim>
					<dim>507</dim>
					<dim>1</dim>
				</port>
			</output>
		</layer>
		<layer id="228" name="/models.30/Mul_9" type="Multiply" version="opset1">
			<data auto_broadcast="numpy" />
			<input>
				<port id="0" precision="FP32">
					<dim>1</dim>
					<dim>507</dim>
					<dim>2</dim>
				</port>
				<port id="1" precision="FP32">
					<dim>1</dim>
					<dim>507</dim>
					<dim>1</dim>
				</port>
			</input>
			<output>
				<port id="2" precision="FP32" names="/models.30/Mul_9_output_0">
					<dim>1</dim>
					<dim>507</dim>
					<dim>2</dim>
				</port>
			</output>
		</layer>
		<layer id="229" name="onnx::Conv_806_compressed" type="Const" version="opset1">
			<data element_type="f16" shape="128, 256, 1, 1" offset="9900316" size="65536" />
			<output>
				<port id="0" precision="FP16">
					<dim>128</dim>
					<dim>256</dim>
					<dim>1</dim>
					<dim>1</dim>
				</port>
			</output>
		</layer>
		<layer id="230" name="onnx::Conv_806" type="Convert" version="opset1">
			<data destination_type="f32" />
			<rt_info>
				<attribute name="decompression" version="0" />
			</rt_info>
			<input>
				<port id="0" precision="FP16">
					<dim>128</dim>
					<dim>256</dim>
					<dim>1</dim>
					<dim>1</dim>
				</port>
			</input>
			<output>
				<port id="1" precision="FP32" names="onnx::Conv_806">
					<dim>128</dim>
					<dim>256</dim>
					<dim>1</dim>
					<dim>1</dim>
				</port>
			</output>
		</layer>
		<layer id="231" name="/models.32/conv19/Conv/WithoutBiases" type="Convolution" version="opset1">
			<data strides="1, 1" dilations="1, 1" pads_begin="0, 0" pads_end="0, 0" auto_pad="explicit" />
			<input>
				<port id="0" precision="FP32">
					<dim>1</dim>
					<dim>256</dim>
					<dim>13</dim>
					<dim>13</dim>
				</port>
				<port id="1" precision="FP32">
					<dim>128</dim>
					<dim>256</dim>
					<dim>1</dim>
					<dim>1</dim>
				</port>
			</input>
			<output>
				<port id="2" precision="FP32">
					<dim>1</dim>
					<dim>128</dim>
					<dim>13</dim>
					<dim>13</dim>
				</port>
			</output>
		</layer>
		<layer id="232" name="Reshape_559_compressed" type="Const" version="opset1">
			<data element_type="f16" shape="1, 128, 1, 1" offset="9965852" size="256" />
			<output>
				<port id="0" precision="FP16">
					<dim>1</dim>
					<dim>128</dim>
					<dim>1</dim>
					<dim>1</dim>
				</port>
			</output>
		</layer>
		<layer id="233" name="Reshape_559" type="Convert" version="opset1">
			<data destination_type="f32" />
			<rt_info>
				<attribute name="decompression" version="0" />
			</rt_info>
			<input>
				<port id="0" precision="FP16">
					<dim>1</dim>
					<dim>128</dim>
					<dim>1</dim>
					<dim>1</dim>
				</port>
			</input>
			<output>
				<port id="1" precision="FP32">
					<dim>1</dim>
					<dim>128</dim>
					<dim>1</dim>
					<dim>1</dim>
				</port>
			</output>
		</layer>
		<layer id="234" name="/models.32/conv19/Conv" type="Add" version="opset1">
			<data auto_broadcast="numpy" />
			<input>
				<port id="0" precision="FP32">
					<dim>1</dim>
					<dim>128</dim>
					<dim>13</dim>
					<dim>13</dim>
				</port>
				<port id="1" precision="FP32">
					<dim>1</dim>
					<dim>128</dim>
					<dim>1</dim>
					<dim>1</dim>
				</port>
			</input>
			<output>
				<port id="2" precision="FP32" names="/models.32/conv19/Conv_output_0">
					<dim>1</dim>
					<dim>128</dim>
					<dim>13</dim>
					<dim>13</dim>
				</port>
			</output>
		</layer>
		<layer id="235" name="Constant_561_compressed" type="Const" version="opset1">
			<data element_type="f16" shape="1" offset="1792" size="2" />
			<output>
				<port id="0" precision="FP16">
					<dim>1</dim>
				</port>
			</output>
		</layer>
		<layer id="236" name="Constant_561" type="Convert" version="opset1">
			<data destination_type="f32" />
			<rt_info>
				<attribute name="decompression" version="0" />
			</rt_info>
			<input>
				<port id="0" precision="FP16">
					<dim>1</dim>
				</port>
			</input>
			<output>
				<port id="1" precision="FP32">
					<dim>1</dim>
				</port>
			</output>
		</layer>
		<layer id="237" name="/models.32/leaky19/LeakyRelu" type="PReLU" version="opset1">
			<input>
				<port id="0" precision="FP32">
					<dim>1</dim>
					<dim>128</dim>
					<dim>13</dim>
					<dim>13</dim>
				</port>
				<port id="1" precision="FP32">
					<dim>1</dim>
				</port>
			</input>
			<output>
				<port id="2" precision="FP32" names="/models.32/leaky19/LeakyRelu_output_0">
					<dim>1</dim>
					<dim>128</dim>
					<dim>13</dim>
					<dim>13</dim>
				</port>
			</output>
		</layer>
		<layer id="238" name="/models.33/Constant" type="Const" version="opset1">
			<data element_type="i64" shape="6" offset="9966108" size="48" />
			<rt_info>
				<attribute name="precise" version="0" />
			</rt_info>
			<output>
				<port id="0" precision="I64" names="/models.33/Constant_output_0">
					<dim>6</dim>
				</port>
			</output>
		</layer>
		<layer id="239" name="/models.33/Reshape" type="Reshape" version="opset1">
			<data special_zero="true" />
			<input>
				<port id="0" precision="FP32">
					<dim>1</dim>
					<dim>128</dim>
					<dim>13</dim>
					<dim>13</dim>
				</port>
				<port id="1" precision="I64">
					<dim>6</dim>
				</port>
			</input>
			<output>
				<port id="2" precision="FP32" names="/models.33/Reshape_output_0">
					<dim>1</dim>
					<dim>128</dim>
					<dim>13</dim>
					<dim>1</dim>
					<dim>13</dim>
					<dim>1</dim>
				</port>
			</output>
		</layer>
		<layer id="240" name="/models.33/Where" type="Const" version="opset1">
			<data element_type="i64" shape="6" offset="9966156" size="48" />
			<rt_info>
				<attribute name="precise" version="0" />
			</rt_info>
			<output>
				<port id="0" precision="I64" names="/models.33/Where_output_0">
					<dim>6</dim>
				</port>
			</output>
		</layer>
		<layer id="241" name="/models.33/Expand" type="Broadcast" version="opset3">
			<data mode="bidirectional" />
			<input>
				<port id="0" precision="FP32">
					<dim>1</dim>
					<dim>128</dim>
					<dim>13</dim>
					<dim>1</dim>
					<dim>13</dim>
					<dim>1</dim>
				</port>
				<port id="1" precision="I64">
					<dim>6</dim>
				</port>
			</input>
			<output>
				<port id="2" precision="FP32" names="/models.33/Expand_output_0">
					<dim>1</dim>
					<dim>128</dim>
					<dim>13</dim>
					<dim>2</dim>
					<dim>13</dim>
					<dim>2</dim>
				</port>
			</output>
		</layer>
		<layer id="242" name="/models.33/Constant_4" type="Const" version="opset1">
			<data element_type="i64" shape="4" offset="9966204" size="32" />
			<rt_info>
				<attribute name="precise" version="0" />
			</rt_info>
			<output>
				<port id="0" precision="I64" names="/models.33/Constant_4_output_0">
					<dim>4</dim>
				</port>
			</output>
		</layer>
		<layer id="243" name="/models.33/Reshape_1" type="Reshape" version="opset1">
			<data special_zero="true" />
			<input>
				<port id="0" precision="FP32">
					<dim>1</dim>
					<dim>128</dim>
					<dim>13</dim>
					<dim>2</dim>
					<dim>13</dim>
					<dim>2</dim>
				</port>
				<port id="1" precision="I64">
					<dim>4</dim>
				</port>
			</input>
			<output>
				<port id="2" precision="FP32" names="/models.33/Reshape_1_output_0">
					<dim>1</dim>
					<dim>128</dim>
					<dim>26</dim>
					<dim>26</dim>
				</port>
			</output>
		</layer>
		<layer id="244" name="/Concat_6" type="Concat" version="opset1">
			<data axis="1" />
			<input>
				<port id="0" precision="FP32">
					<dim>1</dim>
					<dim>128</dim>
					<dim>26</dim>
					<dim>26</dim>
				</port>
				<port id="1" precision="FP32">
					<dim>1</dim>
					<dim>256</dim>
					<dim>26</dim>
					<dim>26</dim>
				</port>
			</input>
			<output>
				<port id="2" precision="FP32" names="/Concat_6_output_0">
					<dim>1</dim>
					<dim>384</dim>
					<dim>26</dim>
					<dim>26</dim>
				</port>
			</output>
		</layer>
		<layer id="245" name="onnx::Conv_809_compressed" type="Const" version="opset1">
			<data element_type="f16" shape="256, 384, 3, 3" offset="9966236" size="1769472" />
			<output>
				<port id="0" precision="FP16">
					<dim>256</dim>
					<dim>384</dim>
					<dim>3</dim>
					<dim>3</dim>
				</port>
			</output>
		</layer>
		<layer id="246" name="onnx::Conv_809" type="Convert" version="opset1">
			<data destination_type="f32" />
			<rt_info>
				<attribute name="decompression" version="0" />
			</rt_info>
			<input>
				<port id="0" precision="FP16">
					<dim>256</dim>
					<dim>384</dim>
					<dim>3</dim>
					<dim>3</dim>
				</port>
			</input>
			<output>
				<port id="1" precision="FP32" names="onnx::Conv_809">
					<dim>256</dim>
					<dim>384</dim>
					<dim>3</dim>
					<dim>3</dim>
				</port>
			</output>
		</layer>
		<layer id="247" name="/models.35/conv20/Conv/WithoutBiases" type="Convolution" version="opset1">
			<data strides="1, 1" dilations="1, 1" pads_begin="1, 1" pads_end="1, 1" auto_pad="explicit" />
			<input>
				<port id="0" precision="FP32">
					<dim>1</dim>
					<dim>384</dim>
					<dim>26</dim>
					<dim>26</dim>
				</port>
				<port id="1" precision="FP32">
					<dim>256</dim>
					<dim>384</dim>
					<dim>3</dim>
					<dim>3</dim>
				</port>
			</input>
			<output>
				<port id="2" precision="FP32">
					<dim>1</dim>
					<dim>256</dim>
					<dim>26</dim>
					<dim>26</dim>
				</port>
			</output>
		</layer>
		<layer id="248" name="Reshape_594_compressed" type="Const" version="opset1">
			<data element_type="f16" shape="1, 256, 1, 1" offset="11735708" size="512" />
			<output>
				<port id="0" precision="FP16">
					<dim>1</dim>
					<dim>256</dim>
					<dim>1</dim>
					<dim>1</dim>
				</port>
			</output>
		</layer>
		<layer id="249" name="Reshape_594" type="Convert" version="opset1">
			<data destination_type="f32" />
			<rt_info>
				<attribute name="decompression" version="0" />
			</rt_info>
			<input>
				<port id="0" precision="FP16">
					<dim>1</dim>
					<dim>256</dim>
					<dim>1</dim>
					<dim>1</dim>
				</port>
			</input>
			<output>
				<port id="1" precision="FP32">
					<dim>1</dim>
					<dim>256</dim>
					<dim>1</dim>
					<dim>1</dim>
				</port>
			</output>
		</layer>
		<layer id="250" name="/models.35/conv20/Conv" type="Add" version="opset1">
			<data auto_broadcast="numpy" />
			<input>
				<port id="0" precision="FP32">
					<dim>1</dim>
					<dim>256</dim>
					<dim>26</dim>
					<dim>26</dim>
				</port>
				<port id="1" precision="FP32">
					<dim>1</dim>
					<dim>256</dim>
					<dim>1</dim>
					<dim>1</dim>
				</port>
			</input>
			<output>
				<port id="2" precision="FP32" names="/models.35/conv20/Conv_output_0">
					<dim>1</dim>
					<dim>256</dim>
					<dim>26</dim>
					<dim>26</dim>
				</port>
			</output>
		</layer>
		<layer id="251" name="Constant_596_compressed" type="Const" version="opset1">
			<data element_type="f16" shape="1" offset="1792" size="2" />
			<output>
				<port id="0" precision="FP16">
					<dim>1</dim>
				</port>
			</output>
		</layer>
		<layer id="252" name="Constant_596" type="Convert" version="opset1">
			<data destination_type="f32" />
			<rt_info>
				<attribute name="decompression" version="0" />
			</rt_info>
			<input>
				<port id="0" precision="FP16">
					<dim>1</dim>
				</port>
			</input>
			<output>
				<port id="1" precision="FP32">
					<dim>1</dim>
				</port>
			</output>
		</layer>
		<layer id="253" name="/models.35/leaky20/LeakyRelu" type="PReLU" version="opset1">
			<input>
				<port id="0" precision="FP32">
					<dim>1</dim>
					<dim>256</dim>
					<dim>26</dim>
					<dim>26</dim>
				</port>
				<port id="1" precision="FP32">
					<dim>1</dim>
				</port>
			</input>
			<output>
				<port id="2" precision="FP32" names="/models.35/leaky20/LeakyRelu_output_0">
					<dim>1</dim>
					<dim>256</dim>
					<dim>26</dim>
					<dim>26</dim>
				</port>
			</output>
		</layer>
		<layer id="254" name="models.36.conv21.weight_compressed" type="Const" version="opset1">
			<data element_type="f16" shape="21, 256, 1, 1" offset="11736220" size="10752" />
			<output>
				<port id="0" precision="FP16">
					<dim>21</dim>
					<dim>256</dim>
					<dim>1</dim>
					<dim>1</dim>
				</port>
			</output>
		</layer>
		<layer id="255" name="models.36.conv21.weight" type="Convert" version="opset1">
			<data destination_type="f32" />
			<rt_info>
				<attribute name="decompression" version="0" />
			</rt_info>
			<input>
				<port id="0" precision="FP16">
					<dim>21</dim>
					<dim>256</dim>
					<dim>1</dim>
					<dim>1</dim>
				</port>
			</input>
			<output>
				<port id="1" precision="FP32" names="models.36.conv21.weight">
					<dim>21</dim>
					<dim>256</dim>
					<dim>1</dim>
					<dim>1</dim>
				</port>
			</output>
		</layer>
		<layer id="256" name="/models.36/conv21/Conv/WithoutBiases" type="Convolution" version="opset1">
			<data strides="1, 1" dilations="1, 1" pads_begin="0, 0" pads_end="0, 0" auto_pad="explicit" />
			<input>
				<port id="0" precision="FP32">
					<dim>1</dim>
					<dim>256</dim>
					<dim>26</dim>
					<dim>26</dim>
				</port>
				<port id="1" precision="FP32">
					<dim>21</dim>
					<dim>256</dim>
					<dim>1</dim>
					<dim>1</dim>
				</port>
			</input>
			<output>
				<port id="2" precision="FP32">
					<dim>1</dim>
					<dim>21</dim>
					<dim>26</dim>
					<dim>26</dim>
				</port>
			</output>
		</layer>
		<layer id="257" name="Reshape_609_compressed" type="Const" version="opset1">
			<data element_type="f16" shape="1, 21, 1, 1" offset="11746972" size="42" />
			<output>
				<port id="0" precision="FP16">
					<dim>1</dim>
					<dim>21</dim>
					<dim>1</dim>
					<dim>1</dim>
				</port>
			</output>
		</layer>
		<layer id="258" name="Reshape_609" type="Convert" version="opset1">
			<data destination_type="f32" />
			<rt_info>
				<attribute name="decompression" version="0" />
			</rt_info>
			<input>
				<port id="0" precision="FP16">
					<dim>1</dim>
					<dim>21</dim>
					<dim>1</dim>
					<dim>1</dim>
				</port>
			</input>
			<output>
				<port id="1" precision="FP32">
					<dim>1</dim>
					<dim>21</dim>
					<dim>1</dim>
					<dim>1</dim>
				</port>
			</output>
		</layer>
		<layer id="259" name="/models.36/conv21/Conv" type="Add" version="opset1">
			<data auto_broadcast="numpy" />
			<input>
				<port id="0" precision="FP32">
					<dim>1</dim>
					<dim>21</dim>
					<dim>26</dim>
					<dim>26</dim>
				</port>
				<port id="1" precision="FP32">
					<dim>1</dim>
					<dim>21</dim>
					<dim>1</dim>
					<dim>1</dim>
				</port>
			</input>
			<output>
				<port id="2" precision="FP32" names="/models.36/conv21/Conv_output_0">
					<dim>1</dim>
					<dim>21</dim>
					<dim>26</dim>
					<dim>26</dim>
				</port>
			</output>
		</layer>
		<layer id="260" name="/models.37/Constant_13" type="Const" version="opset1">
			<data element_type="i64" shape="1" offset="9900116" size="8" />
			<output>
				<port id="0" precision="I64" names="/models.37/Constant_13_output_0">
					<dim>1</dim>
				</port>
			</output>
		</layer>
		<layer id="261" name="/models.37/Constant_14" type="Const" version="opset1">
			<data element_type="i64" shape="1" offset="9900124" size="8" />
			<output>
				<port id="0" precision="I64" names="/models.37/Constant_14_output_0">
					<dim>1</dim>
				</port>
			</output>
		</layer>
		<layer id="262" name="/models.37/Constant_15" type="Const" version="opset1">
			<data element_type="i64" shape="1" offset="112658" size="8" />
			<output>
				<port id="0" precision="I64" names="/models.37/Constant_15_output_0">
					<dim>1</dim>
				</port>
			</output>
		</layer>
		<layer id="263" name="/models.37/Constant_12" type="Const" version="opset1">
			<data element_type="i64" shape="1" offset="112658" size="8" />
			<output>
				<port id="0" precision="I64" names="/models.37/Constant_12_output_0">
					<dim>1</dim>
				</port>
			</output>
		</layer>
		<layer id="264" name="/models.37/Slice_3" type="Slice" version="opset8">
			<input>
				<port id="0" precision="FP32">
					<dim>1</dim>
					<dim>21</dim>
					<dim>26</dim>
					<dim>26</dim>
				</port>
				<port id="1" precision="I64">
					<dim>1</dim>
				</port>
				<port id="2" precision="I64">
					<dim>1</dim>
				</port>
				<port id="3" precision="I64">
					<dim>1</dim>
				</port>
				<port id="4" precision="I64">
					<dim>1</dim>
				</port>
			</input>
			<output>
				<port id="5" precision="FP32" names="/models.37/Slice_3_output_0">
					<dim>1</dim>
					<dim>2</dim>
					<dim>26</dim>
					<dim>26</dim>
				</port>
			</output>
		</layer>
		<layer id="265" name="/models.37/Constant_29" type="Const" version="opset1">
			<data element_type="i64" shape="1" offset="9900132" size="8" />
			<output>
				<port id="0" precision="I64" names="/models.37/Constant_29_output_0">
					<dim>1</dim>
				</port>
			</output>
		</layer>
		<layer id="266" name="/models.37/Constant_30" type="Const" version="opset1">
			<data element_type="i64" shape="1" offset="9900140" size="8" />
			<output>
				<port id="0" precision="I64" names="/models.37/Constant_30_output_0">
					<dim>1</dim>
				</port>
			</output>
		</layer>
		<layer id="267" name="/models.37/Constant_31" type="Const" version="opset1">
			<data element_type="i64" shape="1" offset="112658" size="8" />
			<output>
				<port id="0" precision="I64" names="/models.37/Constant_31_output_0">
					<dim>1</dim>
				</port>
			</output>
		</layer>
		<layer id="268" name="/models.37/Constant_28" type="Const" version="opset1">
			<data element_type="i64" shape="1" offset="112658" size="8" />
			<output>
				<port id="0" precision="I64" names="/models.37/Constant_28_output_0">
					<dim>1</dim>
				</port>
			</output>
		</layer>
		<layer id="269" name="/models.37/Slice_7" type="Slice" version="opset8">
			<input>
				<port id="0" precision="FP32">
					<dim>1</dim>
					<dim>21</dim>
					<dim>26</dim>
					<dim>26</dim>
				</port>
				<port id="1" precision="I64">
					<dim>1</dim>
				</port>
				<port id="2" precision="I64">
					<dim>1</dim>
				</port>
				<port id="3" precision="I64">
					<dim>1</dim>
				</port>
				<port id="4" precision="I64">
					<dim>1</dim>
				</port>
			</input>
			<output>
				<port id="5" precision="FP32" names="/models.37/Slice_7_output_0">
					<dim>1</dim>
					<dim>2</dim>
					<dim>26</dim>
					<dim>26</dim>
				</port>
			</output>
		</layer>
		<layer id="270" name="/models.37/Constant_45" type="Const" version="opset1">
			<data element_type="i64" shape="1" offset="9900148" size="8" />
			<output>
				<port id="0" precision="I64" names="/models.37/Constant_45_output_0">
					<dim>1</dim>
				</port>
			</output>
		</layer>
		<layer id="271" name="/models.37/Constant_46" type="Const" version="opset1">
			<data element_type="i64" shape="1" offset="9900156" size="8" />
			<output>
				<port id="0" precision="I64" names="/models.37/Constant_46_output_0">
					<dim>1</dim>
				</port>
			</output>
		</layer>
		<layer id="272" name="/models.37/Constant_47" type="Const" version="opset1">
			<data element_type="i64" shape="1" offset="112658" size="8" />
			<output>
				<port id="0" precision="I64" names="/models.37/Constant_47_output_0">
					<dim>1</dim>
				</port>
			</output>
		</layer>
		<layer id="273" name="/models.37/Constant_44" type="Const" version="opset1">
			<data element_type="i64" shape="1" offset="112658" size="8" />
			<output>
				<port id="0" precision="I64" names="/models.37/Constant_44_output_0">
					<dim>1</dim>
				</port>
			</output>
		</layer>
		<layer id="274" name="/models.37/Slice_11" type="Slice" version="opset8">
			<input>
				<port id="0" precision="FP32">
					<dim>1</dim>
					<dim>21</dim>
					<dim>26</dim>
					<dim>26</dim>
				</port>
				<port id="1" precision="I64">
					<dim>1</dim>
				</port>
				<port id="2" precision="I64">
					<dim>1</dim>
				</port>
				<port id="3" precision="I64">
					<dim>1</dim>
				</port>
				<port id="4" precision="I64">
					<dim>1</dim>
				</port>
			</input>
			<output>
				<port id="5" precision="FP32" names="/models.37/Slice_11_output_0">
					<dim>1</dim>
					<dim>2</dim>
					<dim>26</dim>
					<dim>26</dim>
				</port>
			</output>
		</layer>
		<layer id="275" name="/models.37/Concat_3" type="Concat" version="opset1">
			<data axis="1" />
			<input>
				<port id="0" precision="FP32">
					<dim>1</dim>
					<dim>2</dim>
					<dim>26</dim>
					<dim>26</dim>
				</port>
				<port id="1" precision="FP32">
					<dim>1</dim>
					<dim>2</dim>
					<dim>26</dim>
					<dim>26</dim>
				</port>
				<port id="2" precision="FP32">
					<dim>1</dim>
					<dim>2</dim>
					<dim>26</dim>
					<dim>26</dim>
				</port>
			</input>
			<output>
				<port id="3" precision="FP32" names="/models.37/Concat_3_output_0">
					<dim>1</dim>
					<dim>6</dim>
					<dim>26</dim>
					<dim>26</dim>
				</port>
			</output>
		</layer>
		<layer id="276" name="/models.37/Constant_49" type="Const" version="opset1">
			<data element_type="i64" shape="4" offset="11747014" size="32" />
			<rt_info>
				<attribute name="precise" version="0" />
			</rt_info>
			<output>
				<port id="0" precision="I64" names="/models.37/Constant_49_output_0">
					<dim>4</dim>
				</port>
			</output>
		</layer>
		<layer id="277" name="/models.37/Reshape_1" type="Reshape" version="opset1">
			<data special_zero="true" />
			<input>
				<port id="0" precision="FP32">
					<dim>1</dim>
					<dim>6</dim>
					<dim>26</dim>
					<dim>26</dim>
				</port>
				<port id="1" precision="I64">
					<dim>4</dim>
				</port>
			</input>
			<output>
				<port id="2" precision="FP32" names="/models.37/Reshape_1_output_0">
					<dim>1</dim>
					<dim>3</dim>
					<dim>2</dim>
					<dim>676</dim>
				</port>
			</output>
		</layer>
		<layer id="278" name="Constant_679" type="Const" version="opset1">
			<data element_type="i64" shape="4" offset="9900196" size="32" />
			<output>
				<port id="0" precision="I64">
					<dim>4</dim>
				</port>
			</output>
		</layer>
		<layer id="279" name="/models.37/Transpose" type="Transpose" version="opset1">
			<input>
				<port id="0" precision="FP32">
					<dim>1</dim>
					<dim>3</dim>
					<dim>2</dim>
					<dim>676</dim>
				</port>
				<port id="1" precision="I64">
					<dim>4</dim>
				</port>
			</input>
			<output>
				<port id="2" precision="FP32" names="/models.37/Transpose_output_0">
					<dim>1</dim>
					<dim>3</dim>
					<dim>676</dim>
					<dim>2</dim>
				</port>
			</output>
		</layer>
		<layer id="280" name="/models.37/Constant_50" type="Const" version="opset1">
			<data element_type="i64" shape="3" offset="11747046" size="24" />
			<rt_info>
				<attribute name="precise" version="0" />
			</rt_info>
			<output>
				<port id="0" precision="I64" names="/models.37/Constant_50_output_0">
					<dim>3</dim>
				</port>
			</output>
		</layer>
		<layer id="281" name="/models.37/Reshape_2" type="Reshape" version="opset1">
			<data special_zero="true" />
			<input>
				<port id="0" precision="FP32">
					<dim>1</dim>
					<dim>3</dim>
					<dim>676</dim>
					<dim>2</dim>
				</port>
				<port id="1" precision="I64">
					<dim>3</dim>
				</port>
			</input>
			<output>
				<port id="2" precision="FP32" names="/models.37/Reshape_2_output_0">
					<dim>1</dim>
					<dim>2028</dim>
					<dim>2</dim>
				</port>
			</output>
		</layer>
		<layer id="282" name="/models.37/Sigmoid_2" type="Sigmoid" version="opset1">
			<input>
				<port id="0" precision="FP32">
					<dim>1</dim>
					<dim>2028</dim>
					<dim>2</dim>
				</port>
			</input>
			<output>
				<port id="1" precision="FP32" names="/models.37/Sigmoid_2_output_0">
					<dim>1</dim>
					<dim>2028</dim>
					<dim>2</dim>
				</port>
			</output>
		</layer>
		<layer id="283" name="/models.37/Constant_9" type="Const" version="opset1">
			<data element_type="i64" shape="1" offset="9900252" size="8" />
			<output>
				<port id="0" precision="I64" names="/models.37/Constant_9_output_0">
					<dim>1</dim>
				</port>
			</output>
		</layer>
		<layer id="284" name="/models.37/Constant_10" type="Const" version="opset1">
			<data element_type="i64" shape="1" offset="9900116" size="8" />
			<output>
				<port id="0" precision="I64" names="/models.37/Constant_10_output_0">
					<dim>1</dim>
				</port>
			</output>
		</layer>
		<layer id="285" name="/models.37/Constant_11" type="Const" version="opset1">
			<data element_type="i64" shape="1" offset="112658" size="8" />
			<output>
				<port id="0" precision="I64" names="/models.37/Constant_11_output_0">
					<dim>1</dim>
				</port>
			</output>
		</layer>
		<layer id="286" name="/models.37/Constant_8" type="Const" version="opset1">
			<data element_type="i64" shape="1" offset="112658" size="8" />
			<output>
				<port id="0" precision="I64" names="/models.37/Constant_8_output_0">
					<dim>1</dim>
				</port>
			</output>
		</layer>
		<layer id="287" name="/models.37/Slice_2" type="Slice" version="opset8">
			<input>
				<port id="0" precision="FP32">
					<dim>1</dim>
					<dim>21</dim>
					<dim>26</dim>
					<dim>26</dim>
				</port>
				<port id="1" precision="I64">
					<dim>1</dim>
				</port>
				<port id="2" precision="I64">
					<dim>1</dim>
				</port>
				<port id="3" precision="I64">
					<dim>1</dim>
				</port>
				<port id="4" precision="I64">
					<dim>1</dim>
				</port>
			</input>
			<output>
				<port id="5" precision="FP32" names="/models.37/Slice_2_output_0">
					<dim>1</dim>
					<dim>1</dim>
					<dim>26</dim>
					<dim>26</dim>
				</port>
			</output>
		</layer>
		<layer id="288" name="/models.37/Constant_25" type="Const" version="opset1">
			<data element_type="i64" shape="1" offset="9900260" size="8" />
			<output>
				<port id="0" precision="I64" names="/models.37/Constant_25_output_0">
					<dim>1</dim>
				</port>
			</output>
		</layer>
		<layer id="289" name="/models.37/Constant_26" type="Const" version="opset1">
			<data element_type="i64" shape="1" offset="9900132" size="8" />
			<output>
				<port id="0" precision="I64" names="/models.37/Constant_26_output_0">
					<dim>1</dim>
				</port>
			</output>
		</layer>
		<layer id="290" name="/models.37/Constant_27" type="Const" version="opset1">
			<data element_type="i64" shape="1" offset="112658" size="8" />
			<output>
				<port id="0" precision="I64" names="/models.37/Constant_27_output_0">
					<dim>1</dim>
				</port>
			</output>
		</layer>
		<layer id="291" name="/models.37/Constant_24" type="Const" version="opset1">
			<data element_type="i64" shape="1" offset="112658" size="8" />
			<output>
				<port id="0" precision="I64" names="/models.37/Constant_24_output_0">
					<dim>1</dim>
				</port>
			</output>
		</layer>
		<layer id="292" name="/models.37/Slice_6" type="Slice" version="opset8">
			<input>
				<port id="0" precision="FP32">
					<dim>1</dim>
					<dim>21</dim>
					<dim>26</dim>
					<dim>26</dim>
				</port>
				<port id="1" precision="I64">
					<dim>1</dim>
				</port>
				<port id="2" precision="I64">
					<dim>1</dim>
				</port>
				<port id="3" precision="I64">
					<dim>1</dim>
				</port>
				<port id="4" precision="I64">
					<dim>1</dim>
				</port>
			</input>
			<output>
				<port id="5" precision="FP32" names="/models.37/Slice_6_output_0">
					<dim>1</dim>
					<dim>1</dim>
					<dim>26</dim>
					<dim>26</dim>
				</port>
			</output>
		</layer>
		<layer id="293" name="/models.37/Constant_41" type="Const" version="opset1">
			<data element_type="i64" shape="1" offset="9900268" size="8" />
			<output>
				<port id="0" precision="I64" names="/models.37/Constant_41_output_0">
					<dim>1</dim>
				</port>
			</output>
		</layer>
		<layer id="294" name="/models.37/Constant_42" type="Const" version="opset1">
			<data element_type="i64" shape="1" offset="9900148" size="8" />
			<output>
				<port id="0" precision="I64" names="/models.37/Constant_42_output_0">
					<dim>1</dim>
				</port>
			</output>
		</layer>
		<layer id="295" name="/models.37/Constant_43" type="Const" version="opset1">
			<data element_type="i64" shape="1" offset="112658" size="8" />
			<output>
				<port id="0" precision="I64" names="/models.37/Constant_43_output_0">
					<dim>1</dim>
				</port>
			</output>
		</layer>
		<layer id="296" name="/models.37/Constant_40" type="Const" version="opset1">
			<data element_type="i64" shape="1" offset="112658" size="8" />
			<output>
				<port id="0" precision="I64" names="/models.37/Constant_40_output_0">
					<dim>1</dim>
				</port>
			</output>
		</layer>
		<layer id="297" name="/models.37/Slice_10" type="Slice" version="opset8">
			<input>
				<port id="0" precision="FP32">
					<dim>1</dim>
					<dim>21</dim>
					<dim>26</dim>
					<dim>26</dim>
				</port>
				<port id="1" precision="I64">
					<dim>1</dim>
				</port>
				<port id="2" precision="I64">
					<dim>1</dim>
				</port>
				<port id="3" precision="I64">
					<dim>1</dim>
				</port>
				<port id="4" precision="I64">
					<dim>1</dim>
				</port>
			</input>
			<output>
				<port id="5" precision="FP32" names="/models.37/Slice_10_output_0">
					<dim>1</dim>
					<dim>1</dim>
					<dim>26</dim>
					<dim>26</dim>
				</port>
			</output>
		</layer>
		<layer id="298" name="/models.37/Concat_2" type="Concat" version="opset1">
			<data axis="1" />
			<input>
				<port id="0" precision="FP32">
					<dim>1</dim>
					<dim>1</dim>
					<dim>26</dim>
					<dim>26</dim>
				</port>
				<port id="1" precision="FP32">
					<dim>1</dim>
					<dim>1</dim>
					<dim>26</dim>
					<dim>26</dim>
				</port>
				<port id="2" precision="FP32">
					<dim>1</dim>
					<dim>1</dim>
					<dim>26</dim>
					<dim>26</dim>
				</port>
			</input>
			<output>
				<port id="3" precision="FP32" names="/models.37/Concat_2_output_0">
					<dim>1</dim>
					<dim>3</dim>
					<dim>26</dim>
					<dim>26</dim>
				</port>
			</output>
		</layer>
		<layer id="299" name="/models.37/Constant_48" type="Const" version="opset1">
			<data element_type="i64" shape="2" offset="11747070" size="16" />
			<rt_info>
				<attribute name="precise" version="0" />
			</rt_info>
			<output>
				<port id="0" precision="I64" names="/models.37/Constant_48_output_0">
					<dim>2</dim>
				</port>
			</output>
		</layer>
		<layer id="300" name="/models.37/Reshape" type="Reshape" version="opset1">
			<data special_zero="true" />
			<input>
				<port id="0" precision="FP32">
					<dim>1</dim>
					<dim>3</dim>
					<dim>26</dim>
					<dim>26</dim>
				</port>
				<port id="1" precision="I64">
					<dim>2</dim>
				</port>
			</input>
			<output>
				<port id="2" precision="FP32" names="/models.37/Reshape_output_0">
					<dim>1</dim>
					<dim>2028</dim>
				</port>
			</output>
		</layer>
		<layer id="301" name="/models.37/Sigmoid_1" type="Sigmoid" version="opset1">
			<input>
				<port id="0" precision="FP32">
					<dim>1</dim>
					<dim>2028</dim>
				</port>
			</input>
			<output>
				<port id="1" precision="FP32" names="/models.37/Sigmoid_1_output_0">
					<dim>1</dim>
					<dim>2028</dim>
				</port>
			</output>
		</layer>
		<layer id="302" name="/models.37/Constant_123" type="Const" version="opset1">
			<data element_type="i64" shape="3" offset="11747086" size="24" />
			<rt_info>
				<attribute name="precise" version="0" />
			</rt_info>
			<output>
				<port id="0" precision="I64" names="/models.37/Constant_123_output_0">
					<dim>3</dim>
				</port>
			</output>
		</layer>
		<layer id="303" name="/models.37/Reshape_8" type="Reshape" version="opset1">
			<data special_zero="true" />
			<input>
				<port id="0" precision="FP32">
					<dim>1</dim>
					<dim>2028</dim>
				</port>
				<port id="1" precision="I64">
					<dim>3</dim>
				</port>
			</input>
			<output>
				<port id="2" precision="FP32" names="/models.37/Reshape_8_output_0">
					<dim>1</dim>
					<dim>2028</dim>
					<dim>1</dim>
				</port>
			</output>
		</layer>
		<layer id="304" name="/models.37/Mul_9" type="Multiply" version="opset1">
			<data auto_broadcast="numpy" />
			<input>
				<port id="0" precision="FP32">
					<dim>1</dim>
					<dim>2028</dim>
					<dim>2</dim>
				</port>
				<port id="1" precision="FP32">
					<dim>1</dim>
					<dim>2028</dim>
					<dim>1</dim>
				</port>
			</input>
			<output>
				<port id="2" precision="FP32" names="/models.37/Mul_9_output_0">
					<dim>1</dim>
					<dim>2028</dim>
					<dim>2</dim>
				</port>
			</output>
		</layer>
		<layer id="305" name="confs" type="Concat" version="opset1">
			<data axis="1" />
			<input>
				<port id="0" precision="FP32">
					<dim>1</dim>
					<dim>507</dim>
					<dim>2</dim>
				</port>
				<port id="1" precision="FP32">
					<dim>1</dim>
					<dim>2028</dim>
					<dim>2</dim>
				</port>
			</input>
			<output>
				<port id="2" precision="FP32" names="confs">
					<dim>1</dim>
					<dim>2535</dim>
					<dim>2</dim>
				</port>
			</output>
		</layer>
		<layer id="307" name="/models.30/Constant_1" type="Const" version="opset1">
			<data element_type="i64" shape="1" offset="11747110" size="8" />
			<output>
				<port id="0" precision="I64" names="/models.30/Constant_1_output_0">
					<dim>1</dim>
				</port>
			</output>
		</layer>
		<layer id="308" name="/models.30/Constant_2" type="Const" version="opset1">
			<data element_type="i64" shape="1" offset="11747118" size="8" />
			<output>
				<port id="0" precision="I64" names="/models.30/Constant_2_output_0">
					<dim>1</dim>
				</port>
			</output>
		</layer>
		<layer id="309" name="/models.30/Constant_3" type="Const" version="opset1">
			<data element_type="i64" shape="1" offset="112658" size="8" />
			<output>
				<port id="0" precision="I64" names="/models.30/Constant_3_output_0">
					<dim>1</dim>
				</port>
			</output>
		</layer>
		<layer id="310" name="/models.30/Constant" type="Const" version="opset1">
			<data element_type="i64" shape="1" offset="112658" size="8" />
			<output>
				<port id="0" precision="I64" names="/models.30/Constant_output_0">
					<dim>1</dim>
				</port>
			</output>
		</layer>
		<layer id="311" name="/models.30/Slice" type="Slice" version="opset8">
			<input>
				<port id="0" precision="FP32">
					<dim>1</dim>
					<dim>21</dim>
					<dim>13</dim>
					<dim>13</dim>
				</port>
				<port id="1" precision="I64">
					<dim>1</dim>
				</port>
				<port id="2" precision="I64">
					<dim>1</dim>
				</port>
				<port id="3" precision="I64">
					<dim>1</dim>
				</port>
				<port id="4" precision="I64">
					<dim>1</dim>
				</port>
			</input>
			<output>
				<port id="5" precision="FP32" names="/models.30/Slice_output_0">
					<dim>1</dim>
					<dim>2</dim>
					<dim>13</dim>
					<dim>13</dim>
				</port>
			</output>
		</layer>
		<layer id="312" name="/models.30/Constant_17" type="Const" version="opset1">
			<data element_type="i64" shape="1" offset="9900124" size="8" />
			<output>
				<port id="0" precision="I64" names="/models.30/Constant_17_output_0">
					<dim>1</dim>
				</port>
			</output>
		</layer>
		<layer id="313" name="/models.30/Constant_18" type="Const" version="opset1">
			<data element_type="i64" shape="1" offset="11747126" size="8" />
			<output>
				<port id="0" precision="I64" names="/models.30/Constant_18_output_0">
					<dim>1</dim>
				</port>
			</output>
		</layer>
		<layer id="314" name="/models.30/Constant_19" type="Const" version="opset1">
			<data element_type="i64" shape="1" offset="112658" size="8" />
			<output>
				<port id="0" precision="I64" names="/models.30/Constant_19_output_0">
					<dim>1</dim>
				</port>
			</output>
		</layer>
		<layer id="315" name="/models.30/Constant_16" type="Const" version="opset1">
			<data element_type="i64" shape="1" offset="112658" size="8" />
			<output>
				<port id="0" precision="I64" names="/models.30/Constant_16_output_0">
					<dim>1</dim>
				</port>
			</output>
		</layer>
		<layer id="316" name="/models.30/Slice_4" type="Slice" version="opset8">
			<input>
				<port id="0" precision="FP32">
					<dim>1</dim>
					<dim>21</dim>
					<dim>13</dim>
					<dim>13</dim>
				</port>
				<port id="1" precision="I64">
					<dim>1</dim>
				</port>
				<port id="2" precision="I64">
					<dim>1</dim>
				</port>
				<port id="3" precision="I64">
					<dim>1</dim>
				</port>
				<port id="4" precision="I64">
					<dim>1</dim>
				</port>
			</input>
			<output>
				<port id="5" precision="FP32" names="/models.30/Slice_4_output_0">
					<dim>1</dim>
					<dim>2</dim>
					<dim>13</dim>
					<dim>13</dim>
				</port>
			</output>
		</layer>
		<layer id="317" name="/models.30/Constant_33" type="Const" version="opset1">
			<data element_type="i64" shape="1" offset="9900140" size="8" />
			<output>
				<port id="0" precision="I64" names="/models.30/Constant_33_output_0">
					<dim>1</dim>
				</port>
			</output>
		</layer>
		<layer id="318" name="/models.30/Constant_34" type="Const" version="opset1">
			<data element_type="i64" shape="1" offset="11747134" size="8" />
			<output>
				<port id="0" precision="I64" names="/models.30/Constant_34_output_0">
					<dim>1</dim>
				</port>
			</output>
		</layer>
		<layer id="319" name="/models.30/Constant_35" type="Const" version="opset1">
			<data element_type="i64" shape="1" offset="112658" size="8" />
			<output>
				<port id="0" precision="I64" names="/models.30/Constant_35_output_0">
					<dim>1</dim>
				</port>
			</output>
		</layer>
		<layer id="320" name="/models.30/Constant_32" type="Const" version="opset1">
			<data element_type="i64" shape="1" offset="112658" size="8" />
			<output>
				<port id="0" precision="I64" names="/models.30/Constant_32_output_0">
					<dim>1</dim>
				</port>
			</output>
		</layer>
		<layer id="321" name="/models.30/Slice_8" type="Slice" version="opset8">
			<input>
				<port id="0" precision="FP32">
					<dim>1</dim>
					<dim>21</dim>
					<dim>13</dim>
					<dim>13</dim>
				</port>
				<port id="1" precision="I64">
					<dim>1</dim>
				</port>
				<port id="2" precision="I64">
					<dim>1</dim>
				</port>
				<port id="3" precision="I64">
					<dim>1</dim>
				</port>
				<port id="4" precision="I64">
					<dim>1</dim>
				</port>
			</input>
			<output>
				<port id="5" precision="FP32" names="/models.30/Slice_8_output_0">
					<dim>1</dim>
					<dim>2</dim>
					<dim>13</dim>
					<dim>13</dim>
				</port>
			</output>
		</layer>
		<layer id="322" name="/models.30/Concat" type="Concat" version="opset1">
			<data axis="1" />
			<input>
				<port id="0" precision="FP32">
					<dim>1</dim>
					<dim>2</dim>
					<dim>13</dim>
					<dim>13</dim>
				</port>
				<port id="1" precision="FP32">
					<dim>1</dim>
					<dim>2</dim>
					<dim>13</dim>
					<dim>13</dim>
				</port>
				<port id="2" precision="FP32">
					<dim>1</dim>
					<dim>2</dim>
					<dim>13</dim>
					<dim>13</dim>
				</port>
			</input>
			<output>
				<port id="3" precision="FP32" names="/models.30/Concat_output_0">
					<dim>1</dim>
					<dim>6</dim>
					<dim>13</dim>
					<dim>13</dim>
				</port>
			</output>
		</layer>
		<layer id="323" name="/models.30/Sigmoid" type="Sigmoid" version="opset1">
			<input>
				<port id="0" precision="FP32">
					<dim>1</dim>
					<dim>6</dim>
					<dim>13</dim>
					<dim>13</dim>
				</port>
			</input>
			<output>
				<port id="1" precision="FP32" names="/models.30/Sigmoid_output_0">
					<dim>1</dim>
					<dim>6</dim>
					<dim>13</dim>
					<dim>13</dim>
				</port>
			</output>
		</layer>
		<layer id="324" name="Constant_3085_compressed" type="Const" version="opset1">
			<data element_type="f16" shape="1, 1, 1, 1" offset="11747142" size="2" />
			<output>
				<port id="0" precision="FP16">
					<dim>1</dim>
					<dim>1</dim>
					<dim>1</dim>
					<dim>1</dim>
				</port>
			</output>
		</layer>
		<layer id="325" name="Constant_3085" type="Convert" version="opset1">
			<data destination_type="f32" />
			<rt_info>
				<attribute name="decompression" version="0" />
			</rt_info>
			<input>
				<port id="0" precision="FP16">
					<dim>1</dim>
					<dim>1</dim>
					<dim>1</dim>
					<dim>1</dim>
				</port>
			</input>
			<output>
				<port id="1" precision="FP32">
					<dim>1</dim>
					<dim>1</dim>
					<dim>1</dim>
					<dim>1</dim>
				</port>
			</output>
		</layer>
		<layer id="326" name="/models.30/Mul" type="Multiply" version="opset1">
			<data auto_broadcast="numpy" />
			<input>
				<port id="0" precision="FP32">
					<dim>1</dim>
					<dim>6</dim>
					<dim>13</dim>
					<dim>13</dim>
				</port>
				<port id="1" precision="FP32">
					<dim>1</dim>
					<dim>1</dim>
					<dim>1</dim>
					<dim>1</dim>
				</port>
			</input>
			<output>
				<port id="2" precision="FP32" names="/models.30/Mul_output_0">
					<dim>1</dim>
					<dim>6</dim>
					<dim>13</dim>
					<dim>13</dim>
				</port>
			</output>
		</layer>
		<layer id="327" name="Constant_3086_compressed" type="Const" version="opset1">
			<data element_type="f16" shape="1, 1, 1, 1" offset="11747144" size="2" />
			<output>
				<port id="0" precision="FP16">
					<dim>1</dim>
					<dim>1</dim>
					<dim>1</dim>
					<dim>1</dim>
				</port>
			</output>
		</layer>
		<layer id="328" name="Constant_3086" type="Convert" version="opset1">
			<data destination_type="f32" />
			<rt_info>
				<attribute name="decompression" version="0" />
			</rt_info>
			<input>
				<port id="0" precision="FP16">
					<dim>1</dim>
					<dim>1</dim>
					<dim>1</dim>
					<dim>1</dim>
				</port>
			</input>
			<output>
				<port id="1" precision="FP32">
					<dim>1</dim>
					<dim>1</dim>
					<dim>1</dim>
					<dim>1</dim>
				</port>
			</output>
		</layer>
		<layer id="329" name="/models.30/Sub" type="Add" version="opset1">
			<data auto_broadcast="numpy" />
			<input>
				<port id="0" precision="FP32">
					<dim>1</dim>
					<dim>6</dim>
					<dim>13</dim>
					<dim>13</dim>
				</port>
				<port id="1" precision="FP32">
					<dim>1</dim>
					<dim>1</dim>
					<dim>1</dim>
					<dim>1</dim>
				</port>
			</input>
			<output>
				<port id="2" precision="FP32" names="/models.30/Sub_output_0">
					<dim>1</dim>
					<dim>6</dim>
					<dim>13</dim>
					<dim>13</dim>
				</port>
			</output>
		</layer>
		<layer id="330" name="/models.30/Constant_54" type="Const" version="opset1">
			<data element_type="i64" shape="1" offset="11747110" size="8" />
			<output>
				<port id="0" precision="I64" names="/models.30/Constant_54_output_0">
					<dim>1</dim>
				</port>
			</output>
		</layer>
		<layer id="331" name="/models.30/Constant_55" type="Const" version="opset1">
			<data element_type="i64" shape="1" offset="112658" size="8" />
			<output>
				<port id="0" precision="I64" names="/models.30/Constant_55_output_0">
					<dim>1</dim>
				</port>
			</output>
		</layer>
		<layer id="332" name="/models.30/Constant_56" type="Const" version="opset1">
			<data element_type="i64" shape="1" offset="112658" size="8" />
			<output>
				<port id="0" precision="I64" names="/models.30/Constant_56_output_0">
					<dim>1</dim>
				</port>
			</output>
		</layer>
		<layer id="333" name="/models.30/Constant_53" type="Const" version="opset1">
			<data element_type="i64" shape="1" offset="112658" size="8" />
			<output>
				<port id="0" precision="I64" names="/models.30/Constant_53_output_0">
					<dim>1</dim>
				</port>
			</output>
		</layer>
		<layer id="334" name="/models.30/Slice_12" type="Slice" version="opset8">
			<input>
				<port id="0" precision="FP32">
					<dim>1</dim>
					<dim>6</dim>
					<dim>13</dim>
					<dim>13</dim>
				</port>
				<port id="1" precision="I64">
					<dim>1</dim>
				</port>
				<port id="2" precision="I64">
					<dim>1</dim>
				</port>
				<port id="3" precision="I64">
					<dim>1</dim>
				</port>
				<port id="4" precision="I64">
					<dim>1</dim>
				</port>
			</input>
			<output>
				<port id="5" precision="FP32" names="/models.30/Slice_12_output_0">
					<dim>1</dim>
					<dim>1</dim>
					<dim>13</dim>
					<dim>13</dim>
				</port>
			</output>
		</layer>
		<layer id="335" name="/models.30/Constant_57_compressed" type="Const" version="opset1">
			<data element_type="f16" shape="1, 1, 13, 13" offset="11747146" size="338" />
			<output>
				<port id="0" precision="FP16">
					<dim>1</dim>
					<dim>1</dim>
					<dim>13</dim>
					<dim>13</dim>
				</port>
			</output>
		</layer>
		<layer id="336" name="/models.30/Constant_57" type="Convert" version="opset1">
			<data destination_type="f32" />
			<rt_info>
				<attribute name="decompression" version="0" />
			</rt_info>
			<input>
				<port id="0" precision="FP16">
					<dim>1</dim>
					<dim>1</dim>
					<dim>13</dim>
					<dim>13</dim>
				</port>
			</input>
			<output>
				<port id="1" precision="FP32" names="/models.30/Constant_57_output_0">
					<dim>1</dim>
					<dim>1</dim>
					<dim>13</dim>
					<dim>13</dim>
				</port>
			</output>
		</layer>
		<layer id="337" name="/models.30/Add" type="Add" version="opset1">
			<data auto_broadcast="numpy" />
			<input>
				<port id="0" precision="FP32">
					<dim>1</dim>
					<dim>1</dim>
					<dim>13</dim>
					<dim>13</dim>
				</port>
				<port id="1" precision="FP32">
					<dim>1</dim>
					<dim>1</dim>
					<dim>13</dim>
					<dim>13</dim>
				</port>
			</input>
			<output>
				<port id="2" precision="FP32" names="/models.30/Add_output_0">
					<dim>1</dim>
					<dim>1</dim>
					<dim>13</dim>
					<dim>13</dim>
				</port>
			</output>
		</layer>
		<layer id="338" name="/models.30/Constant_74" type="Const" version="opset1">
			<data element_type="i64" shape="1" offset="11747118" size="8" />
			<output>
				<port id="0" precision="I64" names="/models.30/Constant_74_output_0">
					<dim>1</dim>
				</port>
			</output>
		</layer>
		<layer id="339" name="/models.30/Constant_75" type="Const" version="opset1">
			<data element_type="i64" shape="1" offset="11747484" size="8" />
			<output>
				<port id="0" precision="I64" names="/models.30/Constant_75_output_0">
					<dim>1</dim>
				</port>
			</output>
		</layer>
		<layer id="340" name="/models.30/Constant_76" type="Const" version="opset1">
			<data element_type="i64" shape="1" offset="112658" size="8" />
			<output>
				<port id="0" precision="I64" names="/models.30/Constant_76_output_0">
					<dim>1</dim>
				</port>
			</output>
		</layer>
		<layer id="341" name="/models.30/Constant_73" type="Const" version="opset1">
			<data element_type="i64" shape="1" offset="112658" size="8" />
			<output>
				<port id="0" precision="I64" names="/models.30/Constant_73_output_0">
					<dim>1</dim>
				</port>
			</output>
		</layer>
		<layer id="342" name="/models.30/Slice_16" type="Slice" version="opset8">
			<input>
				<port id="0" precision="FP32">
					<dim>1</dim>
					<dim>6</dim>
					<dim>13</dim>
					<dim>13</dim>
				</port>
				<port id="1" precision="I64">
					<dim>1</dim>
				</port>
				<port id="2" precision="I64">
					<dim>1</dim>
				</port>
				<port id="3" precision="I64">
					<dim>1</dim>
				</port>
				<port id="4" precision="I64">
					<dim>1</dim>
				</port>
			</input>
			<output>
				<port id="5" precision="FP32" names="/models.30/Slice_16_output_0">
					<dim>1</dim>
					<dim>1</dim>
					<dim>13</dim>
					<dim>13</dim>
				</port>
			</output>
		</layer>
		<layer id="343" name="/models.30/Constant_77_compressed" type="Const" version="opset1">
			<data element_type="f16" shape="1, 1, 13, 13" offset="11747146" size="338" />
			<output>
				<port id="0" precision="FP16">
					<dim>1</dim>
					<dim>1</dim>
					<dim>13</dim>
					<dim>13</dim>
				</port>
			</output>
		</layer>
		<layer id="344" name="/models.30/Constant_77" type="Convert" version="opset1">
			<data destination_type="f32" />
			<rt_info>
				<attribute name="decompression" version="0" />
			</rt_info>
			<input>
				<port id="0" precision="FP16">
					<dim>1</dim>
					<dim>1</dim>
					<dim>13</dim>
					<dim>13</dim>
				</port>
			</input>
			<output>
				<port id="1" precision="FP32" names="/models.30/Constant_77_output_0">
					<dim>1</dim>
					<dim>1</dim>
					<dim>13</dim>
					<dim>13</dim>
				</port>
			</output>
		</layer>
		<layer id="345" name="/models.30/Add_2" type="Add" version="opset1">
			<data auto_broadcast="numpy" />
			<input>
				<port id="0" precision="FP32">
					<dim>1</dim>
					<dim>1</dim>
					<dim>13</dim>
					<dim>13</dim>
				</port>
				<port id="1" precision="FP32">
					<dim>1</dim>
					<dim>1</dim>
					<dim>13</dim>
					<dim>13</dim>
				</port>
			</input>
			<output>
				<port id="2" precision="FP32" names="/models.30/Add_2_output_0">
					<dim>1</dim>
					<dim>1</dim>
					<dim>13</dim>
					<dim>13</dim>
				</port>
			</output>
		</layer>
		<layer id="346" name="/models.30/Constant_94" type="Const" version="opset1">
			<data element_type="i64" shape="1" offset="9900252" size="8" />
			<output>
				<port id="0" precision="I64" names="/models.30/Constant_94_output_0">
					<dim>1</dim>
				</port>
			</output>
		</layer>
		<layer id="347" name="/models.30/Constant_95" type="Const" version="opset1">
			<data element_type="i64" shape="1" offset="9900116" size="8" />
			<output>
				<port id="0" precision="I64" names="/models.30/Constant_95_output_0">
					<dim>1</dim>
				</port>
			</output>
		</layer>
		<layer id="348" name="/models.30/Constant_96" type="Const" version="opset1">
			<data element_type="i64" shape="1" offset="112658" size="8" />
			<output>
				<port id="0" precision="I64" names="/models.30/Constant_96_output_0">
					<dim>1</dim>
				</port>
			</output>
		</layer>
		<layer id="349" name="/models.30/Constant_93" type="Const" version="opset1">
			<data element_type="i64" shape="1" offset="112658" size="8" />
			<output>
				<port id="0" precision="I64" names="/models.30/Constant_93_output_0">
					<dim>1</dim>
				</port>
			</output>
		</layer>
		<layer id="350" name="/models.30/Slice_20" type="Slice" version="opset8">
			<input>
				<port id="0" precision="FP32">
					<dim>1</dim>
					<dim>6</dim>
					<dim>13</dim>
					<dim>13</dim>
				</port>
				<port id="1" precision="I64">
					<dim>1</dim>
				</port>
				<port id="2" precision="I64">
					<dim>1</dim>
				</port>
				<port id="3" precision="I64">
					<dim>1</dim>
				</port>
				<port id="4" precision="I64">
					<dim>1</dim>
				</port>
			</input>
			<output>
				<port id="5" precision="FP32" names="/models.30/Slice_20_output_0">
					<dim>1</dim>
					<dim>1</dim>
					<dim>13</dim>
					<dim>13</dim>
				</port>
			</output>
		</layer>
		<layer id="351" name="/models.30/Constant_97_compressed" type="Const" version="opset1">
			<data element_type="f16" shape="1, 1, 13, 13" offset="11747146" size="338" />
			<output>
				<port id="0" precision="FP16">
					<dim>1</dim>
					<dim>1</dim>
					<dim>13</dim>
					<dim>13</dim>
				</port>
			</output>
		</layer>
		<layer id="352" name="/models.30/Constant_97" type="Convert" version="opset1">
			<data destination_type="f32" />
			<rt_info>
				<attribute name="decompression" version="0" />
			</rt_info>
			<input>
				<port id="0" precision="FP16">
					<dim>1</dim>
					<dim>1</dim>
					<dim>13</dim>
					<dim>13</dim>
				</port>
			</input>
			<output>
				<port id="1" precision="FP32" names="/models.30/Constant_97_output_0">
					<dim>1</dim>
					<dim>1</dim>
					<dim>13</dim>
					<dim>13</dim>
				</port>
			</output>
		</layer>
		<layer id="353" name="/models.30/Add_4" type="Add" version="opset1">
			<data auto_broadcast="numpy" />
			<input>
				<port id="0" precision="FP32">
					<dim>1</dim>
					<dim>1</dim>
					<dim>13</dim>
					<dim>13</dim>
				</port>
				<port id="1" precision="FP32">
					<dim>1</dim>
					<dim>1</dim>
					<dim>13</dim>
					<dim>13</dim>
				</port>
			</input>
			<output>
				<port id="2" precision="FP32" names="/models.30/Add_4_output_0">
					<dim>1</dim>
					<dim>1</dim>
					<dim>13</dim>
					<dim>13</dim>
				</port>
			</output>
		</layer>
		<layer id="354" name="/models.30/Constant_5" type="Const" version="opset1">
			<data element_type="i64" shape="1" offset="11747118" size="8" />
			<output>
				<port id="0" precision="I64" names="/models.30/Constant_5_output_0">
					<dim>1</dim>
				</port>
			</output>
		</layer>
		<layer id="355" name="/models.30/Constant_6" type="Const" version="opset1">
			<data element_type="i64" shape="1" offset="9900252" size="8" />
			<output>
				<port id="0" precision="I64" names="/models.30/Constant_6_output_0">
					<dim>1</dim>
				</port>
			</output>
		</layer>
		<layer id="356" name="/models.30/Constant_7" type="Const" version="opset1">
…
		<edge from-layer="19" from-port="0" to-layer="20" to-port="0" />
		<edge from-layer="20" from-port="1" to-layer="21" to-port="1" />
		<edge from-layer="21" from-port="2" to-layer="24" to-port="0" />
		<edge from-layer="22" from-port="0" to-layer="23" to-port="0" />
		<edge from-layer="23" from-port="1" to-layer="24" to-port="1" />
		<edge from-layer="24" from-port="2" to-layer="27" to-port="0" />
		<edge from-layer="25" from-port="0" to-layer="26" to-port="0" />
		<edge from-layer="26" from-port="1" to-layer="27" to-port="1" />
		<edge from-layer="27" from-port="2" to-layer="32" to-port="0" />
		<edge from-layer="27" from-port="2" to-layer="61" to-port="0" />
		<edge from-layer="28" from-port="0" to-layer="32" to-port="1" />
		<edge from-layer="29" from-port="0" to-layer="32" to-port="2" />
		<edge from-layer="30" from-port="0" to-layer="32" to-port="3" />
		<edge from-layer="31" from-port="0" to-layer="32" to-port="4" />
		<edge from-layer="32" from-port="5" to-layer="35" to-port="0" />
		<edge from-layer="33" from-port="0" to-layer="34" to-port="0" />
		<edge from-layer="34" from-port="1" to-layer="35" to-port="1" />
		<edge from-layer="35" from-port="2" to-layer="38" to-port="0" />
		<edge from-layer="36" from-port="0" to-layer="37" to-port="0" />
		<edge from-layer="37" from-port="1" to-layer="38" to-port="1" />
		<edge from-layer="38" from-port="2" to-layer="41" to-port="0" />
		<edge from-layer="39" from-port="0" to-layer="40" to-port="0" />
		<edge from-layer="40" from-port="1" to-layer="41" to-port="1" />
		<edge from-layer="41" from-port="2" to-layer="51" to-port="1" />
		<edge from-layer="41" from-port="2" to-layer="44" to-port="0" />
		<edge from-layer="42" from-port="0" to-layer="43" to-port="0" />
		<edge from-layer="43" from-port="1" to-layer="44" to-port="1" />
		<edge from-layer="44" from-port="2" to-layer="47" to-port="0" />
		<edge from-layer="45" from-port="0" to-layer="46" to-port="0" />
		<edge from-layer="46" from-port="1" to-layer="47" to-port="1" />
		<edge from-layer="47" from-port="2" to-layer="50" to-port="0" />
		<edge from-layer="48" from-port="0" to-layer="49" to-port="0" />
		<edge from-layer="49" from-port="1" to-layer="50" to-port="1" />
		<edge from-layer="50" from-port="2" to-layer="51" to-port="0" />
		<edge from-layer="51" from-port="2" to-layer="54" to-port="0" />
		<edge from-layer="52" from-port="0" to-layer="53" to-port="0" />
		<edge from-layer="53" from-port="1" to-layer="54" to-port="1" />
		<edge from-layer="54" from-port="2" to-layer="57" to-port="0" />
		<edge from-layer="55" from-port="0" to-layer="56" to-port="0" />
		<edge from-layer="56" from-port="1" to-layer="57" to-port="1" />
		<edge from-layer="57" from-port="2" to-layer="60" to-port="0" />
		<edge from-layer="58" from-port="0" to-layer="59" to-port="0" />
		<edge from-layer="59" from-port="1" to-layer="60" to-port="1" />
		<edge from-layer="60" from-port="2" to-layer="61" to-port="1" />
		<edge from-layer="61" from-port="2" to-layer="62" to-port="0" />
		<edge from-layer="62" from-port="1" to-layer="65" to-port="0" />
		<edge from-layer="63" from-port="0" to-layer="64" to-port="0" />
		<edge from-layer="64" from-port="1" to-layer="65" to-port="1" />
		<edge from-layer="65" from-port="2" to-layer="68" to-port="0" />
		<edge from-layer="66" from-port="0" to-layer="67" to-port="0" />
		<edge from-layer="67" from-port="1" to-layer="68" to-port="1" />
		<edge from-layer="68" from-port="2" to-layer="71" to-port="0" />
		<edge from-layer="69" from-port="0" to-layer="70" to-port="0" />
		<edge from-layer="70" from-port="1" to-layer="71" to-port="1" />
		<edge from-layer="71" from-port="2" to-layer="76" to-port="0" />
		<edge from-layer="71" from-port="2" to-layer="105" to-port="0" />
		<edge from-layer="72" from-port="0" to-layer="76" to-port="1" />
		<edge from-layer="73" from-port="0" to-layer="76" to-port="2" />
		<edge from-layer="74" from-port="0" to-layer="76" to-port="3" />
		<edge from-layer="75" from-port="0" to-layer="76" to-port="4" />
		<edge from-layer="76" from-port="5" to-layer="79" to-port="0" />
		<edge from-layer="77" from-port="0" to-layer="78" to-port="0" />
		<edge from-layer="78" from-port="1" to-layer="79" to-port="1" />
		<edge from-layer="79" from-port="2" to-layer="82" to-port="0" />
		<edge from-layer="80" from-port="0" to-layer="81" to-port="0" />
		<edge from-layer="81" from-port="1" to-layer="82" to-port="1" />
		<edge from-layer="82" from-port="2" to-layer="85" to-port="0" />
		<edge from-layer="83" from-port="0" to-layer="84" to-port="0" />
		<edge from-layer="84" from-port="1" to-layer="85" to-port="1" />
		<edge from-layer="85" from-port="2" to-layer="88" to-port="0" />
		<edge from-layer="85" from-port="2" to-layer="95" to-port="1" />
		<edge from-layer="86" from-port="0" to-layer="87" to-port="0" />
		<edge from-layer="87" from-port="1" to-layer="88" to-port="1" />
		<edge from-layer="88" from-port="2" to-layer="91" to-port="0" />
		<edge from-layer="89" from-port="0" to-layer="90" to-port="0" />
		<edge from-layer="90" from-port="1" to-layer="91" to-port="1" />
		<edge from-layer="91" from-port="2" to-layer="94" to-port="0" />
		<edge from-layer="92" from-port="0" to-layer="93" to-port="0" />
		<edge from-layer="93" from-port="1" to-layer="94" to-port="1" />
		<edge from-layer="94" from-port="2" to-layer="95" to-port="0" />
		<edge from-layer="95" from-port="2" to-layer="98" to-port="0" />
		<edge from-layer="96" from-port="0" to-layer="97" to-port="0" />
		<edge from-layer="97" from-port="1" to-layer="98" to-port="1" />
		<edge from-layer="98" from-port="2" to-layer="101" to-port="0" />
		<edge from-layer="99" from-port="0" to-layer="100" to-port="0" />
		<edge from-layer="100" from-port="1" to-layer="101" to-port="1" />
		<edge from-layer="101" from-port="2" to-layer="104" to-port="0" />
		<edge from-layer="102" from-port="0" to-layer="103" to-port="0" />
		<edge from-layer="103" from-port="1" to-layer="104" to-port="1" />
		<edge from-layer="104" from-port="2" to-layer="105" to-port="1" />
		<edge from-layer="105" from-port="2" to-layer="106" to-port="0" />
		<edge from-layer="106" from-port="1" to-layer="109" to-port="0" />
		<edge from-layer="107" from-port="0" to-layer="108" to-port="0" />
		<edge from-layer="108" from-port="1" to-layer="109" to-port="1" />
		<edge from-layer="109" from-port="2" to-layer="112" to-port="0" />
		<edge from-layer="110" from-port="0" to-layer="111" to-port="0" />
		<edge from-layer="111" from-port="1" to-layer="112" to-port="1" />
		<edge from-layer="112" from-port="2" to-layer="115" to-port="0" />
		<edge from-layer="113" from-port="0" to-layer="114" to-port="0" />
		<edge from-layer="114" from-port="1" to-layer="115" to-port="1" />
		<edge from-layer="115" from-port="2" to-layer="120" to-port="0" />
		<edge from-layer="115" from-port="2" to-layer="149" to-port="0" />
		<edge from-layer="116" from-port="0" to-layer="120" to-port="1" />
		<edge from-layer="117" from-port="0" to-layer="120" to-port="2" />
		<edge from-layer="118" from-port="0" to-layer="120" to-port="3" />
		<edge from-layer="119" from-port="0" to-layer="120" to-port="4" />
		<edge from-layer="120" from-port="5" to-layer="123" to-port="0" />
		<edge from-layer="121" from-port="0" to-layer="122" to-port="0" />
		<edge from-layer="122" from-port="1" to-layer="123" to-port="1" />
		<edge from-layer="123" from-port="2" to-layer="126" to-port="0" />
		<edge from-layer="124" from-port="0" to-layer="125" to-port="0" />
		<edge from-layer="125" from-port="1" to-layer="126" to-port="1" />
		<edge from-layer="126" from-port="2" to-layer="129" to-port="0" />
		<edge from-layer="127" from-port="0" to-layer="128" to-port="0" />
		<edge from-layer="128" from-port="1" to-layer="129" to-port="1" />
		<edge from-layer="129" from-port="2" to-layer="132" to-port="0" />
		<edge from-layer="129" from-port="2" to-layer="139" to-port="1" />
		<edge from-layer="130" from-port="0" to-layer="131" to-port="0" />
		<edge from-layer="131" from-port="1" to-layer="132" to-port="1" />
		<edge from-layer="132" from-port="2" to-layer="135" to-port="0" />
		<edge from-layer="133" from-port="0" to-layer="134" to-port="0" />
		<edge from-layer="134" from-port="1" to-layer="135" to-port="1" />
		<edge from-layer="135" from-port="2" to-layer="138" to-port="0" />
		<edge from-layer="136" from-port="0" to-layer="137" to-port="0" />
		<edge from-layer="137" from-port="1" to-layer="138" to-port="1" />
		<edge from-layer="138" from-port="2" to-layer="139" to-port="0" />
		<edge from-layer="139" from-port="2" to-layer="142" to-port="0" />
		<edge from-layer="140" from-port="0" to-layer="141" to-port="0" />
		<edge from-layer="141" from-port="1" to-layer="142" to-port="1" />
		<edge from-layer="142" from-port="2" to-layer="145" to-port="0" />
		<edge from-layer="143" from-port="0" to-layer="144" to-port="0" />
		<edge from-layer="144" from-port="1" to-layer="145" to-port="1" />
		<edge from-layer="145" from-port="2" to-layer="148" to-port="0" />
		<edge from-layer="146" from-port="0" to-layer="147" to-port="0" />
		<edge from-layer="147" from-port="1" to-layer="148" to-port="1" />
		<edge from-layer="148" from-port="2" to-layer="149" to-port="1" />
		<edge from-layer="148" from-port="2" to-layer="244" to-port="1" />
		<edge from-layer="149" from-port="2" to-layer="150" to-port="0" />
		<edge from-layer="150" from-port="1" to-layer="153" to-port="0" />
		<edge from-layer="151" from-port="0" to-layer="152" to-port="0" />
		<edge from-layer="152" from-port="1" to-layer="153" to-port="1" />
		<edge from-layer="153" from-port="2" to-layer="156" to-port="0" />
		<edge from-layer="154" from-port="0" to-layer="155" to-port="0" />
		<edge from-layer="155" from-port="1" to-layer="156" to-port="1" />
		<edge from-layer="156" from-port="2" to-layer="159" to-port="0" />
		<edge from-layer="157" from-port="0" to-layer="158" to-port="0" />
		<edge from-layer="158" from-port="1" to-layer="159" to-port="1" />
		<edge from-layer="159" from-port="2" to-layer="162" to-port="0" />
		<edge from-layer="160" from-port="0" to-layer="161" to-port="0" />
		<edge from-layer="161" from-port="1" to-layer="162" to-port="1" />
		<edge from-layer="162" from-port="2" to-layer="165" to-port="0" />
		<edge from-layer="163" from-port="0" to-layer="164" to-port="0" />
		<edge from-layer="164" from-port="1" to-layer="165" to-port="1" />
		<edge from-layer="165" from-port="2" to-layer="168" to-port="0" />
		<edge from-layer="166" from-port="0" to-layer="167" to-port="0" />
		<edge from-layer="167" from-port="1" to-layer="168" to-port="1" />
		<edge from-layer="168" from-port="2" to-layer="171" to-port="0" />
		<edge from-layer="168" from-port="2" to-layer="231" to-port="0" />
		<edge from-layer="169" from-port="0" to-layer="170" to-port="0" />
		<edge from-layer="170" from-port="1" to-layer="171" to-port="1" />
		<edge from-layer="171" from-port="2" to-layer="174" to-port="0" />
		<edge from-layer="172" from-port="0" to-layer="173" to-port="0" />
		<edge from-layer="173" from-port="1" to-layer="174" to-port="1" />
		<edge from-layer="174" from-port="2" to-layer="177" to-port="0" />
		<edge from-layer="175" from-port="0" to-layer="176" to-port="0" />
		<edge from-layer="176" from-port="1" to-layer="177" to-port="1" />
		<edge from-layer="177" from-port="2" to-layer="180" to-port="0" />
		<edge from-layer="178" from-port="0" to-layer="179" to-port="0" />
		<edge from-layer="179" from-port="1" to-layer="180" to-port="1" />
		<edge from-layer="180" from-port="2" to-layer="183" to-port="0" />
		<edge from-layer="181" from-port="0" to-layer="182" to-port="0" />
		<edge from-layer="182" from-port="1" to-layer="183" to-port="1" />
		<edge from-layer="183" from-port="2" to-layer="193" to-port="0" />
		<edge from-layer="183" from-port="2" to-layer="198" to-port="0" />
		<edge from-layer="183" from-port="2" to-layer="211" to-port="0" />
		<edge from-layer="183" from-port="2" to-layer="216" to-port="0" />
		<edge from-layer="183" from-port="2" to-layer="221" to-port="0" />
		<edge from-layer="183" from-port="2" to-layer="188" to-port="0" />
		<edge from-layer="183" from-port="2" to-layer="311" to-port="0" />
		<edge from-layer="183" from-port="2" to-layer="316" to-port="0" />
		<edge from-layer="183" from-port="2" to-layer="321" to-port="0" />
		<edge from-layer="183" from-port="2" to-layer="358" to-port="0" />
		<edge from-layer="183" from-port="2" to-layer="363" to-port="0" />
		<edge from-layer="183" from-port="2" to-layer="368" to-port="0" />
		<edge from-layer="184" from-port="0" to-layer="188" to-port="1" />
		<edge from-layer="185" from-port="0" to-layer="188" to-port="2" />
		<edge from-layer="186" from-port="0" to-layer="188" to-port="3" />
		<edge from-layer="187" from-port="0" to-layer="188" to-port="4" />
		<edge from-layer="188" from-port="5" to-layer="199" to-port="0" />
		<edge from-layer="189" from-port="0" to-layer="193" to-port="1" />
		<edge from-layer="190" from-port="0" to-layer="193" to-port="2" />
		<edge from-layer="191" from-port="0" to-layer="193" to-port="3" />
		<edge from-layer="192" from-port="0" to-layer="193" to-port="4" />
		<edge from-layer="193" from-port="5" to-layer="199" to-port="1" />
		<edge from-layer="194" from-port="0" to-layer="198" to-port="1" />
		<edge from-layer="195" from-port="0" to-layer="198" to-port="2" />
		<edge from-layer="196" from-port="0" to-layer="198" to-port="3" />
		<edge from-layer="197" from-port="0" to-layer="198" to-port="4" />
		<edge from-layer="198" from-port="5" to-layer="199" to-port="2" />
		<edge from-layer="199" from-port="3" to-layer="201" to-port="0" />
		<edge from-layer="200" from-port="0" to-layer="201" to-port="1" />
		<edge from-layer="201" from-port="2" to-layer="203" to-port="0" />
		<edge from-layer="202" from-port="0" to-layer="203" to-port="1" />
		<edge from-layer="203" from-port="2" to-layer="205" to-port="0" />
		<edge from-layer="204" from-port="0" to-layer="205" to-port="1" />
		<edge from-layer="205" from-port="2" to-layer="206" to-port="0" />
		<edge from-layer="206" from-port="1" to-layer="228" to-port="0" />
		<edge from-layer="207" from-port="0" to-layer="211" to-port="1" />
		<edge from-layer="208" from-port="0" to-layer="211" to-port="2" />
		<edge from-layer="209" from-port="0" to-layer="211" to-port="3" />
		<edge from-layer="210" from-port="0" to-layer="211" to-port="4" />
		<edge from-layer="211" from-port="5" to-layer="222" to-port="0" />
		<edge from-layer="212" from-port="0" to-layer="216" to-port="1" />
		<edge from-layer="213" from-port="0" to-layer="216" to-port="2" />
		<edge from-layer="214" from-port="0" to-layer="216" to-port="3" />
		<edge from-layer="215" from-port="0" to-layer="216" to-port="4" />
		<edge from-layer="216" from-port="5" to-layer="222" to-port="1" />
		<edge from-layer="217" from-port="0" to-layer="221" to-port="1" />
		<edge from-layer="218" from-port="0" to-layer="221" to-port="2" />
		<edge from-layer="219" from-port="0" to-layer="221" to-port="3" />
		<edge from-layer="220" from-port="0" to-layer="221" to-port="4" />
		<edge from-layer="221" from-port="5" to-layer="222" to-port="2" />
		<edge from-layer="222" from-port="3" to-layer="224" to-port="0" />
		<edge from-layer="223" from-port="0" to-layer="224" to-port="1" />
		<edge from-layer="224" from-port="2" to-layer="225" to-port="0" />
		<edge from-layer="225" from-port="1" to-layer="227" to-port="0" />
		<edge from-layer="226" from-port="0" to-layer="227" to-port="1" />
		<edge from-layer="227" from-port="2" to-layer="228" to-port="1" />
		<edge from-layer="228" from-port="2" to-layer="305" to-port="0" />
		<edge from-layer="229" from-port="0" to-layer="230" to-port="0" />
		<edge from-layer="230" from-port="1" to-layer="231" to-port="1" />
		<edge from-layer="231" from-port="2" to-layer="234" to-port="0" />
		<edge from-layer="232" from-port="0" to-layer="233" to-port="0" />
		<edge from-layer="233" from-port="1" to-layer="234" to-port="1" />
		<edge from-layer="234" from-port="2" to-layer="237" to-port="0" />
		<edge from-layer="235" from-port="0" to-layer="236" to-port="0" />
		<edge from-layer="236" from-port="1" to-layer="237" to-port="1" />
		<edge from-layer="237" from-port="2" to-layer="239" to-port="0" />
		<edge from-layer="238" from-port="0" to-layer="239" to-port="1" />
		<edge from-layer="239" from-port="2" to-layer="241" to-port="0" />
		<edge from-layer="240" from-port="0" to-layer="241" to-port="1" />
		<edge from-layer="241" from-port="2" to-layer="243" to-port="0" />
		<edge from-layer="242" from-port="0" to-layer="243" to-port="1" />
		<edge from-layer="243" from-port="2" to-layer="244" to-port="0" />
		<edge from-layer="244" from-port="2" to-layer="247" to-port="0" />
		<edge from-layer="245" from-port="0" to-layer="246" to-port="0" />
		<edge from-layer="246" from-port="1" to-layer="247" to-port="1" />
		<edge from-layer="247" from-port="2" to-layer="250" to-port="0" />
		<edge from-layer="248" from-port="0" to-layer="249" to-port="0" />
		<edge from-layer="249" from-port="1" to-layer="250" to-port="1" />
		<edge from-layer="250" from-port="2" to-layer="253" to-port="0" />
		<edge from-layer="251" from-port="0" to-layer="252" to-port="0" />
		<edge from-layer="252" from-port="1" to-layer="253" to-port="1" />
		<edge from-layer="253" from-port="2" to-layer="256" to-port="0" />
		<edge from-layer="254" from-port="0" to-layer="255" to-port="0" />
		<edge from-layer="255" from-port="1" to-layer="256" to-port="1" />
		<edge from-layer="256" from-port="2" to-layer="259" to-port="0" />
		<edge from-layer="257" from-port="0" to-layer="258" to-port="0" />
		<edge from-layer="258" from-port="1" to-layer="259" to-port="1" />
		<edge from-layer="259" from-port="2" to-layer="264" to-port="0" />
		<edge from-layer="259" from-port="2" to-layer="269" to-port="0" />
		<edge from-layer="259" from-port="2" to-layer="553" to-port="0" />
		<edge from-layer="259" from-port="2" to-layer="548" to-port="0" />
		<edge from-layer="259" from-port="2" to-layer="292" to-port="0" />
		<edge from-layer="259" from-port="2" to-layer="287" to-port="0" />
		<edge from-layer="259" from-port="2" to-layer="297" to-port="0" />
		<edge from-layer="259" from-port="2" to-layer="274" to-port="0" />
		<edge from-layer="259" from-port="2" to-layer="496" to-port="0" />
		<edge from-layer="259" from-port="2" to-layer="501" to-port="0" />
		<edge from-layer="259" from-port="2" to-layer="506" to-port="0" />
		<edge from-layer="259" from-port="2" to-layer="543" to-port="0" />
		<edge from-layer="260" from-port="0" to-layer="264" to-port="1" />
		<edge from-layer="261" from-port="0" to-layer="264" to-port="2" />
		<edge from-layer="262" from-port="0" to-layer="264" to-port="3" />
		<edge from-layer="263" from-port="0" to-layer="264" to-port="4" />
		<edge from-layer="264" from-port="5" to-layer="275" to-port="0" />
		<edge from-layer="265" from-port="0" to-layer="269" to-port="1" />
		<edge from-layer="266" from-port="0" to-layer="269" to-port="2" />
		<edge from-layer="267" from-port="0" to-layer="269" to-port="3" />
		<edge from-layer="268" from-port="0" to-layer="269" to-port="4" />
		<edge from-layer="269" from-port="5" to-layer="275" to-port="1" />
		<edge from-layer="270" from-port="0" to-layer="274" to-port="1" />
		<edge from-layer="271" from-port="0" to-layer="274" to-port="2" />
		<edge from-layer="272" from-port="0" to-layer="274" to-port="3" />
		<edge from-layer="273" from-port="0" to-layer="274" to-port="4" />
		<edge from-layer="274" from-port="5" to-layer="275" to-port="2" />
		<edge from-layer="275" from-port="3" to-layer="277" to-port="0" />
		<edge from-layer="276" from-port="0" to-layer="277" to-port="1" />
		<edge from-layer="277" from-port="2" to-layer="279" to-port="0" />
		<edge from-layer="278" from-port="0" to-layer="279" to-port="1" />
		<edge from-layer="279" from-port="2" to-layer="281" to-port="0" />
		<edge from-layer="280" from-port="0" to-layer="281" to-port="1" />
		<edge from-layer="281" from-port="2" to-layer="282" to-port="0" />
		<edge from-layer="282" from-port="1" to-layer="304" to-port="0" />
		<edge from-layer="283" from-port="0" to-layer="287" to-port="1" />
		<edge from-layer="284" from-port="0" to-layer="287" to-port="2" />
		<edge from-layer="285" from-port="0" to-layer="287" to-port="3" />
		<edge from-layer="286" from-port="0" to-layer="287" to-port="4" />
		<edge from-layer="287" from-port="5" to-layer="298" to-port="0" />
		<edge from-layer="288" from-port="0" to-layer="292" to-port="1" />
		<edge from-layer="289" from-port="0" to-layer="292" to-port="2" />
		<edge from-layer="290" from-port="0" to-layer="292" to-port="3" />
		<edge from-layer="291" from-port="0" to-layer="292" to-port="4" />
		<edge from-layer="292" from-port="5" to-layer="298" to-port="1" />
		<edge from-layer="293" from-port="0" to-layer="297" to-port="1" />
		<edge from-layer="294" from-port="0" to-layer="297" to-port="2" />
		<edge from-layer="295" from-port="0" to-layer="297" to-port="3" />
		<edge from-layer="296" from-port="0" to-layer="297" to-port="4" />
		<edge from-layer="297" from-port="5" to-layer="298" to-port="2" />
		<edge from-layer="298" from-port="3" to-layer="300" to-port="0" />
		<edge from-layer="299" from-port="0" to-layer="300" to-port="1" />
		<edge from-layer="300" from-port="2" to-layer="301" to-port="0" />
		<edge from-layer="301" from-port="1" to-layer="303" to-port="0" />
		<edge from-layer="302" from-port="0" to-layer="303" to-port="1" />
		<edge from-layer="303" from-port="2" to-layer="304" to-port="1" />
		<edge from-layer="304" from-port="2" to-layer="305" to-port="1" />
		<edge from-layer="305" from-port="2" to-layer="306" to-port="0" />
		<edge from-layer="307" from-port="0" to-layer="311" to-port="1" />
		<edge from-layer="308" from-port="0" to-layer="311" to-port="2" />
		<edge from-layer="309" from-port="0" to-layer="311" to-port="3" />
		<edge from-layer="310" from-port="0" to-layer="311" to-port="4" />
		<edge from-layer="311" from-port="5" to-layer="322" to-port="0" />
		<edge from-layer="312" from-port="0" to-layer="316" to-port="1" />
		<edge from-layer="313" from-port="0" to-layer="316" to-port="2" />
		<edge from-layer="314" from-port="0" to-layer="316" to-port="3" />
		<edge from-layer="315" from-port="0" to-layer="316" to-port="4" />
		<edge from-layer="316" from-port="5" to-layer="322" to-port="1" />
		<edge from-layer="317" from-port="0" to-layer="321" to-port="1" />
		<edge from-layer="318" from-port="0" to-layer="321" to-port="2" />
		<edge from-layer="319" from-port="0" to-layer="321" to-port="3" />
		<edge from-layer="320" from-port="0" to-layer="321" to-port="4" />
		<edge from-layer="321" from-port="5" to-layer="322" to-port="2" />
		<edge from-layer="322" from-port="3" to-layer="323" to-port="0" />
		<edge from-layer="323" from-port="1" to-layer="326" to-port="0" />
		<edge from-layer="324" from-port="0" to-layer="325" to-port="0" />
		<edge from-layer="325" from-port="1" to-layer="326" to-port="1" />
		<edge from-layer="326" from-port="2" to-layer="329" to-port="0" />
		<edge from-layer="327" from-port="0" to-layer="328" to-port="0" />
		<edge from-layer="328" from-port="1" to-layer="329" to-port="1" />
		<edge from-layer="329" from-port="2" to-layer="342" to-port="0" />
		<edge from-layer="329" from-port="2" to-layer="350" to-port="0" />
		<edge from-layer="329" from-port="2" to-layer="334" to-port="0" />
		<edge from-layer="329" from-port="2" to-layer="421" to-port="0" />
		<edge from-layer="329" from-port="2" to-layer="429" to-port="0" />
		<edge from-layer="329" from-port="2" to-layer="437" to-port="0" />
		<edge from-layer="330" from-port="0" to-layer="334" to-port="1" />
		<edge from-layer="331" from-port="0" to-layer="334" to-port="2" />
		<edge from-layer="332" from-port="0" to-layer="334" to-port="3" />
		<edge from-layer="333" from-port="0" to-layer="334" to-port="4" />
		<edge from-layer="334" from-port="5" to-layer="337" to-port="0" />
		<edge from-layer="335" from-port="0" to-layer="336" to-port="0" />
		<edge from-layer="336" from-port="1" to-layer="337" to-port="1" />
		<edge from-layer="337" from-port="2" to-layer="395" to-port="0" />
		<edge from-layer="338" from-port="0" to-layer="342" to-port="1" />
		<edge from-layer="339" from-port="0" to-layer="342" to-port="2" />
		<edge from-layer="340" from-port="0" to-layer="342" to-port="3" />
		<edge from-layer="341" from-port="0" to-layer="342" to-port="4" />
		<edge from-layer="342" from-port="5" to-layer="345" to-port="0" />
		<edge from-layer="343" from-port="0" to-layer="344" to-port="0" />
		<edge from-layer="344" from-port="1" to-layer="345" to-port="1" />
		<edge from-layer="345" from-port="2" to-layer="395" to-port="1" />
		<edge from-layer="346" from-port="0" to-layer="350" to-port="1" />
		<edge from-layer="347" from-port="0" to-layer="350" to-port="2" />
		<edge from-layer="348" from-port="0" to-layer="350" to-port="3" />
		<edge from-layer="349" from-port="0" to-layer="350" to-port="4" />
		<edge from-layer="350" from-port="5" to-layer="353" to-port="0" />
		<edge from-layer="351" from-port="0" to-layer="352" to-port="0" />
		<edge from-layer="352" from-port="1" to-layer="353" to-port="1" />
		<edge from-layer="353" from-port="2" to-layer="395" to-port="2" />
		<edge from-layer="354" from-port="0" to-layer="358" to-port="1" />
		<edge from-layer="355" from-port="0" to-layer="358" to-port="2" />
		<edge from-layer="356" from-port="0" to-layer="358" to-port="3" />
		<edge from-layer="357" from-port="0" to-layer="358" to-port="4" />
		<edge from-layer="358" from-port="5" to-layer="369" to-port="0" />
		<edge from-layer="359" from-port="0" to-layer="363" to-port="1" />
		<edge from-layer="360" from-port="0" to-layer="363" to-port="2" />
		<edge from-layer="361" from-port="0" to-layer="363" to-port="3" />
		<edge from-layer="362" from-port="0" to-layer="363" to-port="4" />
		<edge from-layer="363" from-port="5" to-layer="369" to-port="1" />
		<edge from-layer="364" from-port="0" to-layer="368" to-port="1" />
		<edge from-layer="365" from-port="0" to-layer="368" to-port="2" />
		<edge from-layer="366" from-port="0" to-layer="368" to-port="3" />
		<edge from-layer="367" from-port="0" to-layer="368" to-port="4" />
		<edge from-layer="368" from-port="5" to-layer="369" to-port="2" />
		<edge from-layer="369" from-port="3" to-layer="370" to-port="0" />
		<edge from-layer="370" from-port="1" to-layer="375" to-port="0" />
		<edge from-layer="370" from-port="1" to-layer="461" to-port="0" />
		<edge from-layer="370" from-port="1" to-layer="383" to-port="0" />
		<edge from-layer="370" from-port="1" to-layer="445" to-port="0" />
		<edge from-layer="370" from-port="1" to-layer="453" to-port="0" />
		<edge from-layer="370" from-port="1" to-layer="391" to-port="0" />
		<edge from-layer="371" from-port="0" to-layer="375" to-port="1" />
		<edge from-layer="372" from-port="0" to-layer="375" to-port="2" />
		<edge from-layer="373" from-port="0" to-layer="375" to-port="3" />
		<edge from-layer="374" from-port="0" to-layer="375" to-port="4" />
		<edge from-layer="375" from-port="5" to-layer="378" to-port="0" />
		<edge from-layer="376" from-port="0" to-layer="377" to-port="0" />
		<edge from-layer="377" from-port="1" to-layer="378" to-port="1" />
		<edge from-layer="378" from-port="2" to-layer="395" to-port="3" />
		<edge from-layer="379" from-port="0" to-layer="383" to-port="1" />
		<edge from-layer="380" from-port="0" to-layer="383" to-port="2" />
		<edge from-layer="381" from-port="0" to-layer="383" to-port="3" />
		<edge from-layer="382" from-port="0" to-layer="383" to-port="4" />
		<edge from-layer="383" from-port="5" to-layer="386" to-port="0" />
		<edge from-layer="384" from-port="0" to-layer="385" to-port="0" />
		<edge from-layer="385" from-port="1" to-layer="386" to-port="1" />
		<edge from-layer="386" from-port="2" to-layer="395" to-port="4" />
		<edge from-layer="387" from-port="0" to-layer="391" to-port="1" />
		<edge from-layer="388" from-port="0" to-layer="391" to-port="2" />
		<edge from-layer="389" from-port="0" to-layer="391" to-port="3" />
		<edge from-layer="390" from-port="0" to-layer="391" to-port="4" />
		<edge from-layer="391" from-port="5" to-layer="394" to-port="0" />
		<edge from-layer="392" from-port="0" to-layer="393" to-port="0" />
		<edge from-layer="393" from-port="1" to-layer="394" to-port="1" />
		<edge from-layer="394" from-port="2" to-layer="395" to-port="5" />
		<edge from-layer="395" from-port="6" to-layer="398" to-port="0" />
		<edge from-layer="396" from-port="0" to-layer="397" to-port="0" />
		<edge from-layer="397" from-port="1" to-layer="398" to-port="1" />
		<edge from-layer="398" from-port="2" to-layer="410" to-port="0" />
		<edge from-layer="398" from-port="2" to-layer="403" to-port="0" />
		<edge from-layer="399" from-port="0" to-layer="403" to-port="1" />
		<edge from-layer="400" from-port="0" to-layer="403" to-port="2" />
		<edge from-layer="401" from-port="0" to-layer="403" to-port="3" />
		<edge from-layer="402" from-port="0" to-layer="403" to-port="4" />
		<edge from-layer="403" from-port="5" to-layer="405" to-port="0" />
		<edge from-layer="404" from-port="0" to-layer="405" to-port="1" />
		<edge from-layer="405" from-port="2" to-layer="416" to-port="0" />
		<edge from-layer="406" from-port="0" to-layer="410" to-port="1" />
		<edge from-layer="407" from-port="0" to-layer="410" to-port="2" />
		<edge from-layer="408" from-port="0" to-layer="410" to-port="3" />
		<edge from-layer="409" from-port="0" to-layer="410" to-port="4" />
		<edge from-layer="410" from-port="5" to-layer="412" to-port="0" />
		<edge from-layer="411" from-port="0" to-layer="412" to-port="1" />
		<edge from-layer="412" from-port="2" to-layer="415" to-port="0" />
		<edge from-layer="412" from-port="2" to-layer="487" to-port="1" />
		<edge from-layer="413" from-port="0" to-layer="414" to-port="0" />
		<edge from-layer="414" from-port="1" to-layer="415" to-port="1" />
		<edge from-layer="415" from-port="2" to-layer="416" to-port="1" />
		<edge from-layer="416" from-port="2" to-layer="489" to-port="0" />
		<edge from-layer="416" from-port="2" to-layer="487" to-port="0" />
		<edge from-layer="417" from-port="0" to-layer="421" to-port="1" />
		<edge from-layer="418" from-port="0" to-layer="421" to-port="2" />
		<edge from-layer="419" from-port="0" to-layer="421" to-port="3" />
		<edge from-layer="420" from-port="0" to-layer="421" to-port="4" />
		<edge from-layer="421" from-port="5" to-layer="424" to-port="0" />
		<edge from-layer="422" from-port="0" to-layer="423" to-port="0" />
		<edge from-layer="423" from-port="1" to-layer="424" to-port="1" />
		<edge from-layer="424" from-port="2" to-layer="465" to-port="0" />
		<edge from-layer="425" from-port="0" to-layer="429" to-port="1" />
		<edge from-layer="426" from-port="0" to-layer="429" to-port="2" />
		<edge from-layer="427" from-port="0" to-layer="429" to-port="3" />
		<edge from-layer="428" from-port="0" to-layer="429" to-port="4" />
		<edge from-layer="429" from-port="5" to-layer="432" to-port="0" />
		<edge from-layer="430" from-port="0" to-layer="431" to-port="0" />
		<edge from-layer="431" from-port="1" to-layer="432" to-port="1" />
		<edge from-layer="432" from-port="2" to-layer="465" to-port="1" />
		<edge from-layer="433" from-port="0" to-layer="437" to-port="1" />
		<edge from-layer="434" from-port="0" to-layer="437" to-port="2" />
		<edge from-layer="435" from-port="0" to-layer="437" to-port="3" />
		<edge from-layer="436" from-port="0" to-layer="437" to-port="4" />
		<edge from-layer="437" from-port="5" to-layer="440" to-port="0" />
		<edge from-layer="438" from-port="0" to-layer="439" to-port="0" />
		<edge from-layer="439" from-port="1" to-layer="440" to-port="1" />
		<edge from-layer="440" from-port="2" to-layer="465" to-port="2" />
		<edge from-layer="441" from-port="0" to-layer="445" to-port="1" />
		<edge from-layer="442" from-port="0" to-layer="445" to-port="2" />
		<edge from-layer="443" from-port="0" to-layer="445" to-port="3" />
		<edge from-layer="444" from-port="0" to-layer="445" to-port="4" />
		<edge from-layer="445" from-port="5" to-layer="448" to-port="0" />
		<edge from-layer="446" from-port="0" to-layer="447" to-port="0" />
		<edge from-layer="447" from-port="1" to-layer="448" to-port="1" />
		<edge from-layer="448" from-port="2" to-layer="465" to-port="3" />
		<edge from-layer="449" from-port="0" to-layer="453" to-port="1" />
		<edge from-layer="450" from-port="0" to-layer="453" to-port="2" />
		<edge from-layer="451" from-port="0" to-layer="453" to-port="3" />
		<edge from-layer="452" from-port="0" to-layer="453" to-port="4" />
		<edge from-layer="453" from-port="5" to-layer="456" to-port="0" />
		<edge from-layer="454" from-port="0" to-layer="455" to-port="0" />
		<edge from-layer="455" from-port="1" to-layer="456" to-port="1" />
		<edge from-layer="456" from-port="2" to-layer="465" to-port="4" />
		<edge from-layer="457" from-port="0" to-layer="461" to-port="1" />
		<edge from-layer="458" from-port="0" to-layer="461" to-port="2" />
		<edge from-layer="459" from-port="0" to-layer="461" to-port="3" />
		<edge from-layer="460" from-port="0" to-layer="461" to-port="4" />
		<edge from-layer="461" from-port="5" to-layer="464" to-port="0" />
		<edge from-layer="462" from-port="0" to-layer="463" to-port="0" />
		<edge from-layer="463" from-port="1" to-layer="464" to-port="1" />
		<edge from-layer="464" from-port="2" to-layer="465" to-port="5" />
		<edge from-layer="465" from-port="6" to-layer="468" to-port="0" />
		<edge from-layer="466" from-port="0" to-layer="467" to-port="0" />
		<edge from-layer="467" from-port="1" to-layer="468" to-port="1" />
		<edge from-layer="468" from-port="2" to-layer="473" to-port="0" />
		<edge from-layer="468" from-port="2" to-layer="480" to-port="0" />
		<edge from-layer="469" from-port="0" to-layer="473" to-port="1" />
		<edge from-layer="470" from-port="0" to-layer="473" to-port="2" />
		<edge from-layer="471" from-port="0" to-layer="473" to-port="3" />
		<edge from-layer="472" from-port="0" to-layer="473" to-port="4" />
		<edge from-layer="473" from-port="5" to-layer="475" to-port="0" />
		<edge from-layer="474" from-port="0" to-layer="475" to-port="1" />
		<edge from-layer="475" from-port="2" to-layer="486" to-port="0" />
		<edge from-layer="476" from-port="0" to-layer="480" to-port="1" />
		<edge from-layer="477" from-port="0" to-layer="480" to-port="2" />
		<edge from-layer="478" from-port="0" to-layer="480" to-port="3" />
		<edge from-layer="479" from-port="0" to-layer="480" to-port="4" />
		<edge from-layer="480" from-port="5" to-layer="482" to-port="0" />
		<edge from-layer="481" from-port="0" to-layer="482" to-port="1" />
		<edge from-layer="482" from-port="2" to-layer="485" to-port="0" />
		<edge from-layer="482" from-port="2" to-layer="488" to-port="1" />
		<edge from-layer="483" from-port="0" to-layer="484" to-port="0" />
		<edge from-layer="484" from-port="1" to-layer="485" to-port="1" />
		<edge from-layer="485" from-port="2" to-layer="486" to-port="1" />
		<edge from-layer="486" from-port="2" to-layer="488" to-port="0" />
		<edge from-layer="486" from-port="2" to-layer="489" to-port="1" />
		<edge from-layer="487" from-port="2" to-layer="489" to-port="2" />
		<edge from-layer="488" from-port="2" to-layer="489" to-port="3" />
		<edge from-layer="489" from-port="4" to-layer="491" to-port="0" />
		<edge from-layer="490" from-port="0" to-layer="491" to-port="1" />
		<edge from-layer="491" from-port="2" to-layer="677" to-port="0" />
		<edge from-layer="492" from-port="0" to-layer="496" to-port="1" />
		<edge from-layer="493" from-port="0" to-layer="496" to-port="2" />
		<edge from-layer="494" from-port="0" to-layer="496" to-port="3" />
		<edge from-layer="495" from-port="0" to-layer="496" to-port="4" />
		<edge from-layer="496" from-port="5" to-layer="507" to-port="0" />
		<edge from-layer="497" from-port="0" to-layer="501" to-port="1" />
		<edge from-layer="498" from-port="0" to-layer="501" to-port="2" />
		<edge from-layer="499" from-port="0" to-layer="501" to-port="3" />
		<edge from-layer="500" from-port="0" to-layer="501" to-port="4" />
		<edge from-layer="501" from-port="5" to-layer="507" to-port="1" />
		<edge from-layer="502" from-port="0" to-layer="506" to-port="1" />
		<edge from-layer="503" from-port="0" to-layer="506" to-port="2" />
		<edge from-layer="504" from-port="0" to-layer="506" to-port="3" />
		<edge from-layer="505" from-port="0" to-layer="506" to-port="4" />
		<edge from-layer="506" from-port="5" to-layer="507" to-port="2" />
		<edge from-layer="507" from-port="3" to-layer="508" to-port="0" />
		<edge from-layer="508" from-port="1" to-layer="511" to-port="0" />
		<edge from-layer="509" from-port="0" to-layer="510" to-port="0" />
		<edge from-layer="510" from-port="1" to-layer="511" to-port="1" />
		<edge from-layer="511" from-port="2" to-layer="514" to-port="0" />
		<edge from-layer="512" from-port="0" to-layer="513" to-port="0" />
		<edge from-layer="513" from-port="1" to-layer="514" to-port="1" />
		<edge from-layer="514" from-port="2" to-layer="519" to-port="0" />
		<edge from-layer="514" from-port="2" to-layer="527" to-port="0" />
		<edge from-layer="514" from-port="2" to-layer="535" to-port="0" />
		<edge from-layer="514" from-port="2" to-layer="606" to-port="0" />
		<edge from-layer="514" from-port="2" to-layer="614" to-port="0" />
		<edge from-layer="514" from-port="2" to-layer="622" to-port="0" />
		<edge from-layer="515" from-port="0" to-layer="519" to-port="1" />
		<edge from-layer="516" from-port="0" to-layer="519" to-port="2" />
		<edge from-layer="517" from-port="0" to-layer="519" to-port="3" />
		<edge from-layer="518" from-port="0" to-layer="519" to-port="4" />
		<edge from-layer="519" from-port="5" to-layer="522" to-port="0" />
		<edge from-layer="520" from-port="0" to-layer="521" to-port="0" />
		<edge from-layer="521" from-port="1" to-layer="522" to-port="1" />
		<edge from-layer="522" from-port="2" to-layer="580" to-port="0" />
		<edge from-layer="523" from-port="0" to-layer="527" to-port="1" />
		<edge from-layer="524" from-port="0" to-layer="527" to-port="2" />
		<edge from-layer="525" from-port="0" to-layer="527" to-port="3" />
		<edge from-layer="526" from-port="0" to-layer="527" to-port="4" />
		<edge from-layer="527" from-port="5" to-layer="530" to-port="0" />
		<edge from-layer="528" from-port="0" to-layer="529" to-port="0" />
		<edge from-layer="529" from-port="1" to-layer="530" to-port="1" />
		<edge from-layer="530" from-port="2" to-layer="580" to-port="1" />
		<edge from-layer="531" from-port="0" to-layer="535" to-port="1" />
		<edge from-layer="532" from-port="0" to-layer="535" to-port="2" />
		<edge from-layer="533" from-port="0" to-layer="535" to-port="3" />
		<edge from-layer="534" from-port="0" to-layer="535" to-port="4" />
		<edge from-layer="535" from-port="5" to-layer="538" to-port="0" />
		<edge from-layer="536" from-port="0" to-layer="537" to-port="0" />
		<edge from-layer="537" from-port="1" to-layer="538" to-port="1" />
		<edge from-layer="538" from-port="2" to-layer="580" to-port="2" />
		<edge from-layer="539" from-port="0" to-layer="543" to-port="1" />
		<edge from-layer="540" from-port="0" to-layer="543" to-port="2" />
		<edge from-layer="541" from-port="0" to-layer="543" to-port="3" />
		<edge from-layer="542" from-port="0" to-layer="543" to-port="4" />
		<edge from-layer="543" from-port="5" to-layer="554" to-port="0" />
		<edge from-layer="544" from-port="0" to-layer="548" to-port="1" />
		<edge from-layer="545" from-port="0" to-layer="548" to-port="2" />
		<edge from-layer="546" from-port="0" to-layer="548" to-port="3" />
		<edge from-layer="547" from-port="0" to-layer="548" to-port="4" />
		<edge from-layer="548" from-port="5" to-layer="554" to-port="1" />
		<edge from-layer="549" from-port="0" to-layer="553" to-port="1" />
		<edge from-layer="550" from-port="0" to-layer="553" to-port="2" />
		<edge from-layer="551" from-port="0" to-layer="553" to-port="3" />
		<edge from-layer="552" from-port="0" to-layer="553" to-port="4" />
		<edge from-layer="553" from-port="5" to-layer="554" to-port="2" />
		<edge from-layer="554" from-port="3" to-layer="555" to-port="0" />
		<edge from-layer="555" from-port="1" to-layer="576" to-port="0" />
		<edge from-layer="555" from-port="1" to-layer="560" to-port="0" />
		<edge from-layer="555" from-port="1" to-layer="568" to-port="0" />
		<edge from-layer="555" from-port="1" to-layer="646" to-port="0" />
		<edge from-layer="555" from-port="1" to-layer="630" to-port="0" />
		<edge from-layer="555" from-port="1" to-layer="638" to-port="0" />
		<edge from-layer="556" from-port="0" to-layer="560" to-port="1" />
		<edge from-layer="557" from-port="0" to-layer="560" to-port="2" />
		<edge from-layer="558" from-port="0" to-layer="560" to-port="3" />
		<edge from-layer="559" from-port="0" to-layer="560" to-port="4" />
		<edge from-layer="560" from-port="5" to-layer="563" to-port="0" />
		<edge from-layer="561" from-port="0" to-layer="562" to-port="0" />
		<edge from-layer="562" from-port="1" to-layer="563" to-port="1" />
		<edge from-layer="563" from-port="2" to-layer="580" to-port="3" />
		<edge from-layer="564" from-port="0" to-layer="568" to-port="1" />
		<edge from-layer="565" from-port="0" to-layer="568" to-port="2" />
		<edge from-layer="566" from-port="0" to-layer="568" to-port="3" />
		<edge from-layer="567" from-port="0" to-layer="568" to-port="4" />
		<edge from-layer="568" from-port="5" to-layer="571" to-port="0" />
		<edge from-layer="569" from-port="0" to-layer="570" to-port="0" />
		<edge from-layer="570" from-port="1" to-layer="571" to-port="1" />
		<edge from-layer="571" from-port="2" to-layer="580" to-port="4" />
		<edge from-layer="572" from-port="0" to-layer="576" to-port="1" />
		<edge from-layer="573" from-port="0" to-layer="576" to-port="2" />
		<edge from-layer="574" from-port="0" to-layer="576" to-port="3" />
		<edge from-layer="575" from-port="0" to-layer="576" to-port="4" />
		<edge from-layer="576" from-port="5" to-layer="579" to-port="0" />
		<edge from-layer="577" from-port="0" to-layer="578" to-port="0" />
		<edge from-layer="578" from-port="1" to-layer="579" to-port="1" />
		<edge from-layer="579" from-port="2" to-layer="580" to-port="5" />
		<edge from-layer="580" from-port="6" to-layer="583" to-port="0" />
		<edge from-layer="581" from-port="0" to-layer="582" to-port="0" />
		<edge from-layer="582" from-port="1" to-layer="583" to-port="1" />
		<edge from-layer="583" from-port="2" to-layer="588" to-port="0" />
		<edge from-layer="583" from-port="2" to-layer="595" to-port="0" />
		<edge from-layer="584" from-port="0" to-layer="588" to-port="1" />
		<edge from-layer="585" from-port="0" to-layer="588" to-port="2" />
		<edge from-layer="586" from-port="0" to-layer="588" to-port="3" />
		<edge from-layer="587" from-port="0" to-layer="588" to-port="4" />
		<edge from-layer="588" from-port="5" to-layer="590" to-port="0" />
		<edge from-layer="589" from-port="0" to-layer="590" to-port="1" />
		<edge from-layer="590" from-port="2" to-layer="601" to-port="0" />
		<edge from-layer="591" from-port="0" to-layer="595" to-port="1" />
		<edge from-layer="592" from-port="0" to-layer="595" to-port="2" />
		<edge from-layer="593" from-port="0" to-layer="595" to-port="3" />
		<edge from-layer="594" from-port="0" to-layer="595" to-port="4" />
		<edge from-layer="595" from-port="5" to-layer="597" to-port="0" />
		<edge from-layer="596" from-port="0" to-layer="597" to-port="1" />
		<edge from-layer="597" from-port="2" to-layer="600" to-port="0" />
		<edge from-layer="597" from-port="2" to-layer="672" to-port="1" />
		<edge from-layer="598" from-port="0" to-layer="599" to-port="0" />
		<edge from-layer="599" from-port="1" to-layer="600" to-port="1" />
		<edge from-layer="600" from-port="2" to-layer="601" to-port="1" />
		<edge from-layer="601" from-port="2" to-layer="672" to-port="0" />
		<edge from-layer="601" from-port="2" to-layer="674" to-port="0" />
		<edge from-layer="602" from-port="0" to-layer="606" to-port="1" />
		<edge from-layer="603" from-port="0" to-layer="606" to-port="2" />
		<edge from-layer="604" from-port="0" to-layer="606" to-port="3" />
		<edge from-layer="605" from-port="0" to-layer="606" to-port="4" />
		<edge from-layer="606" from-port="5" to-layer="609" to-port="0" />
		<edge from-layer="607" from-port="0" to-layer="608" to-port="0" />
		<edge from-layer="608" from-port="1" to-layer="609" to-port="1" />
		<edge from-layer="609" from-port="2" to-layer="650" to-port="0" />
		<edge from-layer="610" from-port="0" to-layer="614" to-port="1" />
		<edge from-layer="611" from-port="0" to-layer="614" to-port="2" />
		<edge from-layer="612" from-port="0" to-layer="614" to-port="3" />
		<edge from-layer="613" from-port="0" to-layer="614" to-port="4" />
		<edge from-layer="614" from-port="5" to-layer="617" to-port="0" />
		<edge from-layer="615" from-port="0" to-layer="616" to-port="0" />
		<edge from-layer="616" from-port="1" to-layer="617" to-port="1" />
		<edge from-layer="617" from-port="2" to-layer="650" to-port="1" />
		<edge from-layer="618" from-port="0" to-layer="622" to-port="1" />
		<edge from-layer="619" from-port="0" to-layer="622" to-port="2" />
		<edge from-layer="620" from-port="0" to-layer="622" to-port="3" />
		<edge from-layer="621" from-port="0" to-layer="622" to-port="4" />
		<edge from-layer="622" from-port="5" to-layer="625" to-port="0" />
		<edge from-layer="623" from-port="0" to-layer="624" to-port="0" />
		<edge from-layer="624" from-port="1" to-layer="625" to-port="1" />
		<edge from-layer="625" from-port="2" to-layer="650" to-port="2" />
		<edge from-layer="626" from-port="0" to-layer="630" to-port="1" />
		<edge from-layer="627" from-port="0" to-layer="630" to-port="2" />
		<edge from-layer="628" from-port="0" to-layer="630" to-port="3" />
		<edge from-layer="629" from-port="0" to-layer="630" to-port="4" />
		<edge from-layer="630" from-port="5" to-layer="633" to-port="0" />
		<edge from-layer="631" from-port="0" to-layer="632" to-port="0" />
		<edge from-layer="632" from-port="1" to-layer="633" to-port="1" />
		<edge from-layer="633" from-port="2" to-layer="650" to-port="3" />
		<edge from-layer="634" from-port="0" to-layer="638" to-port="1" />
		<edge from-layer="635" from-port="0" to-layer="638" to-port="2" />
		<edge from-layer="636" from-port="0" to-layer="638" to-port="3" />
		<edge from-layer="637" from-port="0" to-layer="638" to-port="4" />
		<edge from-layer="638" from-port="5" to-layer="641" to-port="0" />
		<edge from-layer="639" from-port="0" to-layer="640" to-port="0" />
		<edge from-layer="640" from-port="1" to-layer="641" to-port="1" />
		<edge from-layer="641" from-port="2" to-layer="650" to-port="4" />
		<edge from-layer="642" from-port="0" to-layer="646" to-port="1" />
		<edge from-layer="643" from-port="0" to-layer="646" to-port="2" />
		<edge from-layer="644" from-port="0" to-layer="646" to-port="3" />
		<edge from-layer="645" from-port="0" to-layer="646" to-port="4" />
		<edge from-layer="646" from-port="5" to-layer="649" to-port="0" />
		<edge from-layer="647" from-port="0" to-layer="648" to-port="0" />
		<edge from-layer="648" from-port="1" to-layer="649" to-port="1" />
		<edge from-layer="649" from-port="2" to-layer="650" to-port="5" />
		<edge from-layer="650" from-port="6" to-layer="653" to-port="0" />
		<edge from-layer="651" from-port="0" to-layer="652" to-port="0" />
		<edge from-layer="652" from-port="1" to-layer="653" to-port="1" />
		<edge from-layer="653" from-port="2" to-layer="658" to-port="0" />
		<edge from-layer="653" from-port="2" to-layer="665" to-port="0" />
		<edge from-layer="654" from-port="0" to-layer="658" to-port="1" />
		<edge from-layer="655" from-port="0" to-layer="658" to-port="2" />
		<edge from-layer="656" from-port="0" to-layer="658" to-port="3" />
		<edge from-layer="657" from-port="0" to-layer="658" to-port="4" />
		<edge from-layer="658" from-port="5" to-layer="660" to-port="0" />
		<edge from-layer="659" from-port="0" to-layer="660" to-port="1" />
		<edge from-layer="660" from-port="2" to-layer="671" to-port="0" />
		<edge from-layer="661" from-port="0" to-layer="665" to-port="1" />
		<edge from-layer="662" from-port="0" to-layer="665" to-port="2" />
		<edge from-layer="663" from-port="0" to-layer="665" to-port="3" />
		<edge from-layer="664" from-port="0" to-layer="665" to-port="4" />
		<edge from-layer="665" from-port="5" to-layer="667" to-port="0" />
		<edge from-layer="666" from-port="0" to-layer="667" to-port="1" />
		<edge from-layer="667" from-port="2" to-layer="670" to-port="0" />
		<edge from-layer="667" from-port="2" to-layer="673" to-port="1" />
		<edge from-layer="668" from-port="0" to-layer="669" to-port="0" />
		<edge from-layer="669" from-port="1" to-layer="670" to-port="1" />
		<edge from-layer="670" from-port="2" to-layer="671" to-port="1" />
		<edge from-layer="671" from-port="2" to-layer="673" to-port="0" />
		<edge from-layer="671" from-port="2" to-layer="674" to-port="1" />
		<edge from-layer="672" from-port="2" to-layer="674" to-port="2" />
		<edge from-layer="673" from-port="2" to-layer="674" to-port="3" />
		<edge from-layer="674" from-port="4" to-layer="676" to-port="0" />
		<edge from-layer="675" from-port="0" to-layer="676" to-port="1" />
		<edge from-layer="676" from-port="2" to-layer="677" to-port="1" />
		<edge from-layer="677" from-port="2" to-layer="678" to-port="0" />
	</edges>
	<rt_info>
		<MO_version value="2024.6.0-17404-4c0f47d2335-releases/2024/6" />
		<Runtime_version value="2024.6.0-17404-4c0f47d2335-releases/2024/6" />
		<conversion_parameters>
			<input_model value="DIR\yolov4-tiny-custom_1000.onnx" />
			<input_shape value="[1,3,416,416]" />
			<is_python_api_used value="False" />
			<output_dir value="C:\Users\amanp\OneDrive\Desktop\openVINO\ir_output" />
		</conversion_parameters>
		<legacy_frontend value="False" />
	</rt_info>
</net>
